{"format": "graph-model", "generatedBy": "2.3.0", "convertedBy": "TensorFlow.js Converter v3.0.0", "signature": {"inputs": {"input_image:0": {"name": "input_image:0", "dtype": "DT_FLOAT", "tensorShape": {"dim": [{"size": "-1"}, {"size": "320"}, {"size": "320"}, {"size": "3"}]}}}, "outputs": {"Identity_16:0": {"name": "Identity_16:0", "dtype": "DT_FLOAT", "tensorShape": {"dim": [{"size": "-1"}, {"size": "160"}, {"size": "160"}, {"size": "1"}]}}, "Identity_5:0": {"name": "Identity_5:0", "dtype": "DT_FLOAT", "tensorShape": {"dim": [{"size": "-1"}, {"size": "160"}, {"size": "160"}, {"size": "1"}]}}, "Identity_7:0": {"name": "Identity_7:0", "dtype": "DT_FLOAT", "tensorShape": {"dim": [{"size": "-1"}, {"size": "160"}, {"size": "160"}, {"size": "1"}]}}, "Identity_8:0": {"name": "Identity_8:0", "dtype": "DT_FLOAT", "tensorShape": {"dim": [{"size": "-1"}, {"size": "160"}, {"size": "160"}, {"size": "1"}]}}, "Identity_6:0": {"name": "Identity_6:0", "dtype": "DT_FLOAT", "tensorShape": {"dim": [{"size": "-1"}, {"size": "160"}, {"size": "160"}, {"size": "1"}]}}, "Identity_10:0": {"name": "Identity_10:0", "dtype": "DT_FLOAT", "tensorShape": {"dim": [{"size": "-1"}, {"size": "200"}]}}, "Identity_1:0": {"name": "Identity_1:0", "dtype": "DT_FLOAT", "tensorShape": {"dim": [{"size": "-1"}, {"size": "160"}, {"size": "160"}, {"size": "4"}]}}, "Identity_14:0": {"name": "Identity_14:0", "dtype": "DT_INT32", "tensorShape": {"dim": [{"size": "-1"}, {"size": "200"}, {"size": "2"}]}}, "Identity_13:0": {"name": "Identity_13:0", "dtype": "DT_FLOAT", "tensorShape": {"dim": [{"size": "-1"}, {"size": "160"}, {"size": "160"}, {"size": "1"}]}}, "Identity_3:0": {"name": "Identity_3:0", "dtype": "DT_INT32", "tensorShape": {"dim": [{"size": "-1"}, {"size": "200"}, {"size": "2"}]}}, "Identity_12:0": {"name": "Identity_12:0", "dtype": "DT_FLOAT", "tensorShape": {"dim": [{"size": "-1"}, {"size": "160"}, {"size": "160"}, {"size": "1"}]}}, "Identity_15:0": {"name": "Identity_15:0", "dtype": "DT_FLOAT", "tensorShape": {"dim": [{"size": "-1"}, {"size": "200"}]}}, "Identity_9:0": {"name": "Identity_9:0", "dtype": "DT_INT32", "tensorShape": {"dim": [{"size": "-1"}, {"size": "200"}, {"size": "2"}]}}, "Identity_2:0": {"name": "Identity_2:0", "dtype": "DT_FLOAT", "tensorShape": {"dim": [{"size": "-1"}, {"size": "160"}, {"size": "160"}, {"size": "4"}]}}, "Identity_11:0": {"name": "Identity_11:0", "dtype": "DT_FLOAT", "tensorShape": {"dim": [{"size": "-1"}, {"size": "160"}, {"size": "160"}, {"size": "4"}]}}, "Identity_4:0": {"name": "Identity_4:0", "dtype": "DT_FLOAT", "tensorShape": {"dim": [{"size": "-1"}, {"size": "200"}]}}, "Identity:0": {"name": "Identity:0", "dtype": "DT_FLOAT", "tensorShape": {"dim": [{"size": "-1"}, {"size": "160"}, {"size": "160"}, {"size": "1"}]}}}}, "modelTopology": {"node": [{"name": "StatefulPartitionedCall/WireFrameModel/Decoder/strided_slice_3/stack", "op": "Const", "attr": {"dtype": {"type": "DT_INT32"}, "value": {"tensor": {"dtype": "DT_INT32", "tensorShape": {"dim": [{"size": "4"}]}}}}}, {"name": "StatefulPartitionedCall/WireFrameModel/Decoder/strided_slice_3/stack_1", "op": "Const", "attr": {"value": {"tensor": {"dtype": "DT_INT32", "tensorShape": {"dim": [{"size": "4"}]}}}, "dtype": {"type": "DT_INT32"}}}, {"name": "StatefulPartitionedCall/WireFrameModel/Decoder/strided_slice_3/stack_2", "op": "Const", "attr": {"dtype": {"type": "DT_INT32"}, "value": {"tensor": {"dtype": "DT_INT32", "tensorShape": {"dim": [{"size": "4"}]}}}}}, {"name": "StatefulPartitionedCall/WireFrameModel/Decoder/strided_slice_1/stack", "op": "Const", "attr": {"value": {"tensor": {"dtype": "DT_INT32", "tensorShape": {"dim": [{"size": "4"}]}}}, "dtype": {"type": "DT_INT32"}}}, {"name": "StatefulPartitionedCall/WireFrameModel/Decoder/strided_slice_1/stack_1", "op": "Const", "attr": {"value": {"tensor": {"dtype": "DT_INT32", "tensorShape": {"dim": [{"size": "4"}]}}}, "dtype": {"type": "DT_INT32"}}}, {"name": "StatefulPartitionedCall/WireFrameModel/Decoder/strided_slice_1/stack_2", "op": "Const", "attr": {"dtype": {"type": "DT_INT32"}, "value": {"tensor": {"dtype": "DT_INT32", "tensorShape": {"dim": [{"size": "4"}]}}}}}, {"name": "StatefulPartitionedCall/WireFrameModel/Decoder/floordiv_2/y", "op": "Const", "attr": {"dtype": {"type": "DT_INT32"}, "value": {"tensor": {"dtype": "DT_INT32", "tensorShape": {}}}}}, {"name": "StatefulPartitionedCall/WireFrameModel/Decoder/ExpandDims_4/dim", "op": "Const", "attr": {"dtype": {"type": "DT_INT32"}, "value": {"tensor": {"dtype": "DT_INT32", "tensorShape": {}}}}}, {"name": "StatefulPartitionedCall/WireFrameModel/Decoder/mod_2/y", "op": "Const", "attr": {"dtype": {"type": "DT_INT32"}, "value": {"tensor": {"dtype": "DT_INT32", "tensorShape": {}}}}}, {"name": "StatefulPartitionedCall/WireFrameModel/Decoder/ExpandDims_5/dim", "op": "Const", "attr": {"dtype": {"type": "DT_INT32"}, "value": {"tensor": {"dtype": "DT_INT32", "tensorShape": {}}}}}, {"name": "StatefulPartitionedCall/WireFrameModel/Decoder/concat_2/axis", "op": "Const", "attr": {"dtype": {"type": "DT_INT32"}, "value": {"tensor": {"dtype": "DT_INT32", "tensorShape": {}}}}}, {"name": "StatefulPartitionedCall/WireFrameModel/Decoder/strided_slice_2/stack", "op": "Const", "attr": {"dtype": {"type": "DT_INT32"}, "value": {"tensor": {"dtype": "DT_INT32", "tensorShape": {"dim": [{"size": "4"}]}}}}}, {"name": "StatefulPartitionedCall/WireFrameModel/Decoder/strided_slice_2/stack_1", "op": "Const", "attr": {"dtype": {"type": "DT_INT32"}, "value": {"tensor": {"dtype": "DT_INT32", "tensorShape": {"dim": [{"size": "4"}]}}}}}, {"name": "StatefulPartitionedCall/WireFrameModel/Decoder/strided_slice_2/stack_2", "op": "Const", "attr": {"value": {"tensor": {"dtype": "DT_INT32", "tensorShape": {"dim": [{"size": "4"}]}}}, "dtype": {"type": "DT_INT32"}}}, {"name": "StatefulPartitionedCall/WireFrameModel/Decoder/Reshape_2/shape", "op": "Const", "attr": {"dtype": {"type": "DT_INT32"}, "value": {"tensor": {"dtype": "DT_INT32", "tensorShape": {"dim": [{"size": "2"}]}}}}}, {"name": "StatefulPartitionedCall/WireFrameModel/Decoder/TopKV2_2/k", "op": "Const", "attr": {"dtype": {"type": "DT_INT32"}, "value": {"tensor": {"dtype": "DT_INT32", "tensorShape": {}}}}}, {"name": "StatefulPartitionedCall/WireFrameModel/Decoder/strided_slice_5/stack", "op": "Const", "attr": {"value": {"tensor": {"dtype": "DT_INT32", "tensorShape": {"dim": [{"size": "4"}]}}}, "dtype": {"type": "DT_INT32"}}}, {"name": "StatefulPartitionedCall/WireFrameModel/Decoder/strided_slice_5/stack_1", "op": "Const", "attr": {"dtype": {"type": "DT_INT32"}, "value": {"tensor": {"dtype": "DT_INT32", "tensorShape": {"dim": [{"size": "4"}]}}}}}, {"name": "StatefulPartitionedCall/WireFrameModel/Decoder/strided_slice_5/stack_2", "op": "Const", "attr": {"dtype": {"type": "DT_INT32"}, "value": {"tensor": {"dtype": "DT_INT32", "tensorShape": {"dim": [{"size": "4"}]}}}}}, {"name": "StatefulPartitionedCall/WireFrameModel/Decoder/floordiv/y", "op": "Const", "attr": {"value": {"tensor": {"dtype": "DT_INT32", "tensorShape": {}}}, "dtype": {"type": "DT_INT32"}}}, {"name": "StatefulPartitionedCall/WireFrameModel/Decoder/ExpandDims/dim", "op": "Const", "attr": {"dtype": {"type": "DT_INT32"}, "value": {"tensor": {"dtype": "DT_INT32", "tensorShape": {}}}}}, {"name": "StatefulPartitionedCall/WireFrameModel/Decoder/mod/y", "op": "Const", "attr": {"dtype": {"type": "DT_INT32"}, "value": {"tensor": {"dtype": "DT_INT32", "tensorShape": {}}}}}, {"name": "StatefulPartitionedCall/WireFrameModel/Decoder/ExpandDims_1/dim", "op": "Const", "attr": {"value": {"tensor": {"dtype": "DT_INT32", "tensorShape": {}}}, "dtype": {"type": "DT_INT32"}}}, {"name": "StatefulPartitionedCall/WireFrameModel/Decoder/concat/axis", "op": "Const", "attr": {"value": {"tensor": {"dtype": "DT_INT32", "tensorShape": {}}}, "dtype": {"type": "DT_INT32"}}}, {"name": "StatefulPartitionedCall/WireFrameModel/Decoder/strided_slice_4/stack", "op": "Const", "attr": {"dtype": {"type": "DT_INT32"}, "value": {"tensor": {"dtype": "DT_INT32", "tensorShape": {"dim": [{"size": "4"}]}}}}}, {"name": "StatefulPartitionedCall/WireFrameModel/Decoder/strided_slice_4/stack_1", "op": "Const", "attr": {"value": {"tensor": {"dtype": "DT_INT32", "tensorShape": {"dim": [{"size": "4"}]}}}, "dtype": {"type": "DT_INT32"}}}, {"name": "StatefulPartitionedCall/WireFrameModel/Decoder/strided_slice_4/stack_2", "op": "Const", "attr": {"value": {"tensor": {"dtype": "DT_INT32", "tensorShape": {"dim": [{"size": "4"}]}}}, "dtype": {"type": "DT_INT32"}}}, {"name": "StatefulPartitionedCall/WireFrameModel/Decoder/Reshape/shape", "op": "Const", "attr": {"value": {"tensor": {"dtype": "DT_INT32", "tensorShape": {"dim": [{"size": "2"}]}}}, "dtype": {"type": "DT_INT32"}}}, {"name": "StatefulPartitionedCall/WireFrameModel/Decoder/TopKV2/k", "op": "Const", "attr": {"value": {"tensor": {"dtype": "DT_INT32", "tensorShape": {}}}, "dtype": {"type": "DT_INT32"}}}, {"name": "StatefulPartitionedCall/WireFrameModel/Decoder/strided_slice_6/stack", "op": "Const", "attr": {"dtype": {"type": "DT_INT32"}, "value": {"tensor": {"dtype": "DT_INT32", "tensorShape": {"dim": [{"size": "4"}]}}}}}, {"name": "StatefulPartitionedCall/WireFrameModel/Decoder/strided_slice_6/stack_1", "op": "Const", "attr": {"dtype": {"type": "DT_INT32"}, "value": {"tensor": {"dtype": "DT_INT32", "tensorShape": {"dim": [{"size": "4"}]}}}}}, {"name": "StatefulPartitionedCall/WireFrameModel/Decoder/strided_slice_6/stack_2", "op": "Const", "attr": {"value": {"tensor": {"dtype": "DT_INT32", "tensorShape": {"dim": [{"size": "4"}]}}}, "dtype": {"type": "DT_INT32"}}}, {"name": "StatefulPartitionedCall/WireFrameModel/Decoder/strided_slice_7/stack", "op": "Const", "attr": {"dtype": {"type": "DT_INT32"}, "value": {"tensor": {"dtype": "DT_INT32", "tensorShape": {"dim": [{"size": "4"}]}}}}}, {"name": "StatefulPartitionedCall/WireFrameModel/Decoder/strided_slice_7/stack_1", "op": "Const", "attr": {"value": {"tensor": {"dtype": "DT_INT32", "tensorShape": {"dim": [{"size": "4"}]}}}, "dtype": {"type": "DT_INT32"}}}, {"name": "StatefulPartitionedCall/WireFrameModel/Decoder/strided_slice_7/stack_2", "op": "Const", "attr": {"dtype": {"type": "DT_INT32"}, "value": {"tensor": {"dtype": "DT_INT32", "tensorShape": {"dim": [{"size": "4"}]}}}}}, {"name": "StatefulPartitionedCall/WireFrameModel/Decoder/strided_slice_8/stack", "op": "Const", "attr": {"value": {"tensor": {"dtype": "DT_INT32", "tensorShape": {"dim": [{"size": "4"}]}}}, "dtype": {"type": "DT_INT32"}}}, {"name": "StatefulPartitionedCall/WireFrameModel/Decoder/strided_slice_8/stack_1", "op": "Const", "attr": {"dtype": {"type": "DT_INT32"}, "value": {"tensor": {"dtype": "DT_INT32", "tensorShape": {"dim": [{"size": "4"}]}}}}}, {"name": "StatefulPartitionedCall/WireFrameModel/Decoder/strided_slice_8/stack_2", "op": "Const", "attr": {"value": {"tensor": {"dtype": "DT_INT32", "tensorShape": {"dim": [{"size": "4"}]}}}, "dtype": {"type": "DT_INT32"}}}, {"name": "StatefulPartitionedCall/WireFrameModel/Decoder/strided_slice_9/stack", "op": "Const", "attr": {"value": {"tensor": {"dtype": "DT_INT32", "tensorShape": {"dim": [{"size": "4"}]}}}, "dtype": {"type": "DT_INT32"}}}, {"name": "StatefulPartitionedCall/WireFrameModel/Decoder/strided_slice_9/stack_1", "op": "Const", "attr": {"value": {"tensor": {"dtype": "DT_INT32", "tensorShape": {"dim": [{"size": "4"}]}}}, "dtype": {"type": "DT_INT32"}}}, {"name": "StatefulPartitionedCall/WireFrameModel/Decoder/strided_slice_9/stack_2", "op": "Const", "attr": {"dtype": {"type": "DT_INT32"}, "value": {"tensor": {"dtype": "DT_INT32", "tensorShape": {"dim": [{"size": "4"}]}}}}}, {"name": "StatefulPartitionedCall/WireFrameModel/Decoder/floordiv_1/y", "op": "Const", "attr": {"dtype": {"type": "DT_INT32"}, "value": {"tensor": {"dtype": "DT_INT32", "tensorShape": {}}}}}, {"name": "StatefulPartitionedCall/WireFrameModel/Decoder/ExpandDims_2/dim", "op": "Const", "attr": {"dtype": {"type": "DT_INT32"}, "value": {"tensor": {"dtype": "DT_INT32", "tensorShape": {}}}}}, {"name": "ConstantFolding/StatefulPartitionedCall/WireFrameModel/tf_op_layer_RealDiv/RealDiv_recip", "op": "Const", "attr": {"value": {"tensor": {"dtype": "DT_FLOAT", "tensorShape": {}}}, "dtype": {"type": "DT_FLOAT"}}}, {"name": "StatefulPartitionedCall/WireFrameModel/tf_op_layer_Sub/Sub/y", "op": "Const", "attr": {"value": {"tensor": {"dtype": "DT_FLOAT", "tensorShape": {}}}, "dtype": {"type": "DT_FLOAT"}}}, {"name": "StatefulPartitionedCall/WireFrameModel/MLSD_extractor/Conv1_pad/Pad/paddings", "op": "Const", "attr": {"value": {"tensor": {"dtype": "DT_INT32", "tensorShape": {"dim": [{"size": "4"}, {"size": "2"}]}}}, "dtype": {"type": "DT_INT32"}}}, {"name": "StatefulPartitionedCall/WireFrameModel/MLSD_extractor/block_1_pad/Pad/paddings", "op": "Const", "attr": {"value": {"tensor": {"dtype": "DT_INT32", "tensorShape": {"dim": [{"size": "4"}, {"size": "2"}]}}}, "dtype": {"type": "DT_INT32"}}}, {"name": "StatefulPartitionedCall/WireFrameModel/MLSD_extractor/block_3_pad/Pad/paddings", "op": "Const", "attr": {"value": {"tensor": {"dtype": "DT_INT32", "tensorShape": {"dim": [{"size": "4"}, {"size": "2"}]}}}, "dtype": {"type": "DT_INT32"}}}, {"name": "StatefulPartitionedCall/WireFrameModel/MLSD_extractor/block_6_pad/Pad/paddings", "op": "Const", "attr": {"dtype": {"type": "DT_INT32"}, "value": {"tensor": {"dtype": "DT_INT32", "tensorShape": {"dim": [{"size": "4"}, {"size": "2"}]}}}}}, {"name": "StatefulPartitionedCall/WireFrameModel/decoder_fpn/upblock/resize/size", "op": "Const", "attr": {"value": {"tensor": {"dtype": "DT_INT32", "tensorShape": {"dim": [{"size": "2"}]}}}, "dtype": {"type": "DT_INT32"}}}, {"name": "StatefulPartitionedCall/WireFrameModel/decoder_fpn/upblock/concat/axis", "op": "Const", "attr": {"dtype": {"type": "DT_INT32"}, "value": {"tensor": {"dtype": "DT_INT32", "tensorShape": {}}}}}, {"name": "StatefulPartitionedCall/WireFrameModel/decoder_fpn/upblock_1/resize/size", "op": "Const", "attr": {"value": {"tensor": {"dtype": "DT_INT32", "tensorShape": {"dim": [{"size": "2"}]}}}, "dtype": {"type": "DT_INT32"}}}, {"name": "StatefulPartitionedCall/WireFrameModel/decoder_fpn/upblock_1/concat/axis", "op": "Const", "attr": {"value": {"tensor": {"dtype": "DT_INT32", "tensorShape": {}}}, "dtype": {"type": "DT_INT32"}}}, {"name": "StatefulPartitionedCall/WireFrameModel/Decoder/conv_bn__act_8/conv/Conv2D/SpaceToBatchND/block_shape", "op": "Const", "attr": {"value": {"tensor": {"dtype": "DT_INT32", "tensorShape": {"dim": [{"size": "2"}]}}}, "dtype": {"type": "DT_INT32"}}}, {"name": "StatefulPartitionedCall/WireFrameModel/Decoder/conv_bn__act_8/conv/Conv2D/SpaceToBatchND/paddings", "op": "Const", "attr": {"dtype": {"type": "DT_INT32"}, "value": {"tensor": {"dtype": "DT_INT32", "tensorShape": {"dim": [{"size": "2"}, {"size": "2"}]}}}}}, {"name": "unknown_189", "op": "Const", "attr": {"dtype": {"type": "DT_FLOAT"}, "value": {"tensor": {"dtype": "DT_FLOAT", "tensorShape": {"dim": [{"size": "3"}, {"size": "3"}, {"size": "64"}, {"size": "64"}]}}}}}, {"name": "StatefulPartitionedCall/WireFrameModel/Decoder/conv_bn__act_8/conv/Conv2D/BatchToSpaceND/block_shape", "op": "Const", "attr": {"dtype": {"type": "DT_INT32"}, "value": {"tensor": {"dtype": "DT_INT32", "tensorShape": {"dim": [{"size": "2"}]}}}}}, {"name": "StatefulPartitionedCall/WireFrameModel/Decoder/conv_bn__act_8/conv/Conv2D/BatchToSpaceND/crops", "op": "Const", "attr": {"dtype": {"type": "DT_INT32"}, "value": {"tensor": {"dtype": "DT_INT32", "tensorShape": {"dim": [{"size": "2"}, {"size": "2"}]}}}}}, {"name": "unknown_199", "op": "Const", "attr": {"value": {"tensor": {"dtype": "DT_FLOAT", "tensorShape": {"dim": [{"size": "1"}, {"size": "1"}, {"size": "64"}, {"size": "16"}]}}}, "dtype": {"type": "DT_FLOAT"}}}, {"name": "unknown_200", "op": "Const", "attr": {"value": {"tensor": {"dtype": "DT_FLOAT", "tensorShape": {"dim": [{"size": "16"}]}}}, "dtype": {"type": "DT_FLOAT"}}}, {"name": "StatefulPartitionedCall/WireFrameModel/Decoder/resize/size", "op": "Const", "attr": {"value": {"tensor": {"dtype": "DT_INT32", "tensorShape": {"dim": [{"size": "2"}]}}}, "dtype": {"type": "DT_INT32"}}}, {"name": "StatefulPartitionedCall/WireFrameModel/Decoder/strided_slice/stack", "op": "Const", "attr": {"value": {"tensor": {"dtype": "DT_INT32", "tensorShape": {"dim": [{"size": "4"}]}}}, "dtype": {"type": "DT_INT32"}}}, {"name": "StatefulPartitionedCall/WireFrameModel/Decoder/strided_slice/stack_1", "op": "Const", "attr": {"value": {"tensor": {"dtype": "DT_INT32", "tensorShape": {"dim": [{"size": "4"}]}}}, "dtype": {"type": "DT_INT32"}}}, {"name": "StatefulPartitionedCall/WireFrameModel/Decoder/strided_slice/stack_2", "op": "Const", "attr": {"value": {"tensor": {"dtype": "DT_INT32", "tensorShape": {"dim": [{"size": "4"}]}}}, "dtype": {"type": "DT_INT32"}}}, {"name": "StatefulPartitionedCall/WireFrameModel/Decoder/Reshape_1/shape", "op": "Const", "attr": {"value": {"tensor": {"dtype": "DT_INT32", "tensorShape": {"dim": [{"size": "2"}]}}}, "dtype": {"type": "DT_INT32"}}}, {"name": "StatefulPartitionedCall/WireFrameModel/Decoder/TopKV2_1/k", "op": "Const", "attr": {"dtype": {"type": "DT_INT32"}, "value": {"tensor": {"dtype": "DT_INT32", "tensorShape": {}}}}}, {"name": "StatefulPartitionedCall/WireFrameModel/Decoder/mod_1/y", "op": "Const", "attr": {"dtype": {"type": "DT_INT32"}, "value": {"tensor": {"dtype": "DT_INT32", "tensorShape": {}}}}}, {"name": "StatefulPartitionedCall/WireFrameModel/Decoder/ExpandDims_3/dim", "op": "Const", "attr": {"value": {"tensor": {"dtype": "DT_INT32", "tensorShape": {}}}, "dtype": {"type": "DT_INT32"}}}, {"name": "StatefulPartitionedCall/WireFrameModel/Decoder/concat_1/axis", "op": "Const", "attr": {"dtype": {"type": "DT_INT32"}, "value": {"tensor": {"dtype": "DT_INT32", "tensorShape": {}}}}}, {"name": "input_image", "op": "Placeholder", "attr": {"dtype": {"type": "DT_FLOAT"}, "shape": {"shape": {"dim": [{"size": "-1"}, {"size": "320"}, {"size": "320"}, {"size": "3"}]}}}}, {"name": "StatefulPartitionedCall/WireFrameModel/MLSD_extractor/Conv1/Conv2D_weights", "op": "Const", "attr": {"dtype": {"type": "DT_FLOAT"}, "value": {"tensor": {"dtype": "DT_FLOAT", "tensorShape": {"dim": [{"size": "3"}, {"size": "3"}, {"size": "3"}, {"size": "32"}]}}}}}, {"name": "StatefulPartitionedCall/WireFrameModel/MLSD_extractor/Conv1/Conv2D_bn_offset", "op": "Const", "attr": {"dtype": {"type": "DT_FLOAT"}, "value": {"tensor": {"dtype": "DT_FLOAT", "tensorShape": {"dim": [{"size": "32"}]}}}}}, {"name": "StatefulPartitionedCall/WireFrameModel/MLSD_extractor/expanded_conv_depthwise/depthwise_weights", "op": "Const", "attr": {"dtype": {"type": "DT_FLOAT"}, "value": {"tensor": {"dtype": "DT_FLOAT", "tensorShape": {"dim": [{"size": "3"}, {"size": "3"}, {"size": "32"}, {"size": "1"}]}}}}}, {"name": "StatefulPartitionedCall/WireFrameModel/MLSD_extractor/expanded_conv_depthwise/depthwise_bn_offset", "op": "Const", "attr": {"value": {"tensor": {"dtype": "DT_FLOAT", "tensorShape": {"dim": [{"size": "32"}]}}}, "dtype": {"type": "DT_FLOAT"}}}, {"name": "StatefulPartitionedCall/WireFrameModel/MLSD_extractor/expanded_conv_project/Conv2D_weights", "op": "Const", "attr": {"dtype": {"type": "DT_FLOAT"}, "value": {"tensor": {"dtype": "DT_FLOAT", "tensorShape": {"dim": [{"size": "1"}, {"size": "1"}, {"size": "32"}, {"size": "16"}]}}}}}, {"name": "StatefulPartitionedCall/WireFrameModel/MLSD_extractor/expanded_conv_project/Conv2D_bn_offset", "op": "Const", "attr": {"dtype": {"type": "DT_FLOAT"}, "value": {"tensor": {"dtype": "DT_FLOAT", "tensorShape": {"dim": [{"size": "16"}]}}}}}, {"name": "StatefulPartitionedCall/WireFrameModel/MLSD_extractor/block_1_expand/Conv2D_weights", "op": "Const", "attr": {"value": {"tensor": {"dtype": "DT_FLOAT", "tensorShape": {"dim": [{"size": "1"}, {"size": "1"}, {"size": "16"}, {"size": "96"}]}}}, "dtype": {"type": "DT_FLOAT"}}}, {"name": "StatefulPartitionedCall/WireFrameModel/MLSD_extractor/block_1_expand/Conv2D_bn_offset", "op": "Const", "attr": {"dtype": {"type": "DT_FLOAT"}, "value": {"tensor": {"dtype": "DT_FLOAT", "tensorShape": {"dim": [{"size": "96"}]}}}}}, {"name": "StatefulPartitionedCall/WireFrameModel/MLSD_extractor/block_1_depthwise/depthwise_weights", "op": "Const", "attr": {"value": {"tensor": {"dtype": "DT_FLOAT", "tensorShape": {"dim": [{"size": "3"}, {"size": "3"}, {"size": "96"}, {"size": "1"}]}}}, "dtype": {"type": "DT_FLOAT"}}}, {"name": "StatefulPartitionedCall/WireFrameModel/MLSD_extractor/block_1_depthwise/depthwise_bn_offset", "op": "Const", "attr": {"dtype": {"type": "DT_FLOAT"}, "value": {"tensor": {"dtype": "DT_FLOAT", "tensorShape": {"dim": [{"size": "96"}]}}}}}, {"name": "StatefulPartitionedCall/WireFrameModel/MLSD_extractor/block_1_project/Conv2D_weights", "op": "Const", "attr": {"value": {"tensor": {"dtype": "DT_FLOAT", "tensorShape": {"dim": [{"size": "1"}, {"size": "1"}, {"size": "96"}, {"size": "24"}]}}}, "dtype": {"type": "DT_FLOAT"}}}, {"name": "StatefulPartitionedCall/WireFrameModel/MLSD_extractor/block_1_project/Conv2D_bn_offset", "op": "Const", "attr": {"dtype": {"type": "DT_FLOAT"}, "value": {"tensor": {"dtype": "DT_FLOAT", "tensorShape": {"dim": [{"size": "24"}]}}}}}, {"name": "StatefulPartitionedCall/WireFrameModel/MLSD_extractor/block_2_expand/Conv2D_weights", "op": "Const", "attr": {"value": {"tensor": {"dtype": "DT_FLOAT", "tensorShape": {"dim": [{"size": "1"}, {"size": "1"}, {"size": "24"}, {"size": "144"}]}}}, "dtype": {"type": "DT_FLOAT"}}}, {"name": "StatefulPartitionedCall/WireFrameModel/MLSD_extractor/block_2_expand/Conv2D_bn_offset", "op": "Const", "attr": {"value": {"tensor": {"dtype": "DT_FLOAT", "tensorShape": {"dim": [{"size": "144"}]}}}, "dtype": {"type": "DT_FLOAT"}}}, {"name": "StatefulPartitionedCall/WireFrameModel/MLSD_extractor/block_2_depthwise/depthwise_weights", "op": "Const", "attr": {"dtype": {"type": "DT_FLOAT"}, "value": {"tensor": {"dtype": "DT_FLOAT", "tensorShape": {"dim": [{"size": "3"}, {"size": "3"}, {"size": "144"}, {"size": "1"}]}}}}}, {"name": "StatefulPartitionedCall/WireFrameModel/MLSD_extractor/block_2_depthwise/depthwise_bn_offset", "op": "Const", "attr": {"value": {"tensor": {"dtype": "DT_FLOAT", "tensorShape": {"dim": [{"size": "144"}]}}}, "dtype": {"type": "DT_FLOAT"}}}, {"name": "StatefulPartitionedCall/WireFrameModel/MLSD_extractor/block_2_project/Conv2D_weights", "op": "Const", "attr": {"dtype": {"type": "DT_FLOAT"}, "value": {"tensor": {"dtype": "DT_FLOAT", "tensorShape": {"dim": [{"size": "1"}, {"size": "1"}, {"size": "144"}, {"size": "24"}]}}}}}, {"name": "StatefulPartitionedCall/WireFrameModel/MLSD_extractor/block_2_project/Conv2D_bn_offset", "op": "Const", "attr": {"value": {"tensor": {"dtype": "DT_FLOAT", "tensorShape": {"dim": [{"size": "24"}]}}}, "dtype": {"type": "DT_FLOAT"}}}, {"name": "StatefulPartitionedCall/WireFrameModel/decoder_fpn/upblock_1/conv_bn__act_4/conv/Conv2D_weights", "op": "Const", "attr": {"value": {"tensor": {"dtype": "DT_FLOAT", "tensorShape": {"dim": [{"size": "1"}, {"size": "1"}, {"size": "24"}, {"size": "32"}]}}}, "dtype": {"type": "DT_FLOAT"}}}, {"name": "StatefulPartitionedCall/WireFrameModel/decoder_fpn/upblock_1/conv_bn__act_4/conv/Conv2D_bn_offset", "op": "Const", "attr": {"value": {"tensor": {"dtype": "DT_FLOAT", "tensorShape": {"dim": [{"size": "32"}]}}}, "dtype": {"type": "DT_FLOAT"}}}, {"name": "StatefulPartitionedCall/WireFrameModel/MLSD_extractor/block_3_expand/Conv2D_weights", "op": "Const", "attr": {"value": {"tensor": {"dtype": "DT_FLOAT", "tensorShape": {"dim": [{"size": "1"}, {"size": "1"}, {"size": "24"}, {"size": "144"}]}}}, "dtype": {"type": "DT_FLOAT"}}}, {"name": "StatefulPartitionedCall/WireFrameModel/MLSD_extractor/block_3_expand/Conv2D_bn_offset", "op": "Const", "attr": {"dtype": {"type": "DT_FLOAT"}, "value": {"tensor": {"dtype": "DT_FLOAT", "tensorShape": {"dim": [{"size": "144"}]}}}}}, {"name": "StatefulPartitionedCall/WireFrameModel/MLSD_extractor/block_3_depthwise/depthwise_weights", "op": "Const", "attr": {"dtype": {"type": "DT_FLOAT"}, "value": {"tensor": {"dtype": "DT_FLOAT", "tensorShape": {"dim": [{"size": "3"}, {"size": "3"}, {"size": "144"}, {"size": "1"}]}}}}}, {"name": "StatefulPartitionedCall/WireFrameModel/MLSD_extractor/block_3_depthwise/depthwise_bn_offset", "op": "Const", "attr": {"dtype": {"type": "DT_FLOAT"}, "value": {"tensor": {"dtype": "DT_FLOAT", "tensorShape": {"dim": [{"size": "144"}]}}}}}, {"name": "StatefulPartitionedCall/WireFrameModel/MLSD_extractor/block_3_project/Conv2D_weights", "op": "Const", "attr": {"dtype": {"type": "DT_FLOAT"}, "value": {"tensor": {"dtype": "DT_FLOAT", "tensorShape": {"dim": [{"size": "1"}, {"size": "1"}, {"size": "144"}, {"size": "32"}]}}}}}, {"name": "StatefulPartitionedCall/WireFrameModel/MLSD_extractor/block_3_project/Conv2D_bn_offset", "op": "Const", "attr": {"value": {"tensor": {"dtype": "DT_FLOAT", "tensorShape": {"dim": [{"size": "32"}]}}}, "dtype": {"type": "DT_FLOAT"}}}, {"name": "StatefulPartitionedCall/WireFrameModel/MLSD_extractor/block_4_expand/Conv2D_weights", "op": "Const", "attr": {"dtype": {"type": "DT_FLOAT"}, "value": {"tensor": {"dtype": "DT_FLOAT", "tensorShape": {"dim": [{"size": "1"}, {"size": "1"}, {"size": "32"}, {"size": "192"}]}}}}}, {"name": "StatefulPartitionedCall/WireFrameModel/MLSD_extractor/block_4_expand/Conv2D_bn_offset", "op": "Const", "attr": {"value": {"tensor": {"dtype": "DT_FLOAT", "tensorShape": {"dim": [{"size": "192"}]}}}, "dtype": {"type": "DT_FLOAT"}}}, {"name": "StatefulPartitionedCall/WireFrameModel/MLSD_extractor/block_4_depthwise/depthwise_weights", "op": "Const", "attr": {"dtype": {"type": "DT_FLOAT"}, "value": {"tensor": {"dtype": "DT_FLOAT", "tensorShape": {"dim": [{"size": "3"}, {"size": "3"}, {"size": "192"}, {"size": "1"}]}}}}}, {"name": "StatefulPartitionedCall/WireFrameModel/MLSD_extractor/block_4_depthwise/depthwise_bn_offset", "op": "Const", "attr": {"value": {"tensor": {"dtype": "DT_FLOAT", "tensorShape": {"dim": [{"size": "192"}]}}}, "dtype": {"type": "DT_FLOAT"}}}, {"name": "StatefulPartitionedCall/WireFrameModel/MLSD_extractor/block_4_project/Conv2D_weights", "op": "Const", "attr": {"value": {"tensor": {"dtype": "DT_FLOAT", "tensorShape": {"dim": [{"size": "1"}, {"size": "1"}, {"size": "192"}, {"size": "32"}]}}}, "dtype": {"type": "DT_FLOAT"}}}, {"name": "StatefulPartitionedCall/WireFrameModel/MLSD_extractor/block_4_project/Conv2D_bn_offset", "op": "Const", "attr": {"value": {"tensor": {"dtype": "DT_FLOAT", "tensorShape": {"dim": [{"size": "32"}]}}}, "dtype": {"type": "DT_FLOAT"}}}, {"name": "StatefulPartitionedCall/WireFrameModel/MLSD_extractor/block_5_expand/Conv2D_weights", "op": "Const", "attr": {"value": {"tensor": {"dtype": "DT_FLOAT", "tensorShape": {"dim": [{"size": "1"}, {"size": "1"}, {"size": "32"}, {"size": "192"}]}}}, "dtype": {"type": "DT_FLOAT"}}}, {"name": "StatefulPartitionedCall/WireFrameModel/MLSD_extractor/block_5_expand/Conv2D_bn_offset", "op": "Const", "attr": {"value": {"tensor": {"dtype": "DT_FLOAT", "tensorShape": {"dim": [{"size": "192"}]}}}, "dtype": {"type": "DT_FLOAT"}}}, {"name": "StatefulPartitionedCall/WireFrameModel/MLSD_extractor/block_5_depthwise/depthwise_weights", "op": "Const", "attr": {"value": {"tensor": {"dtype": "DT_FLOAT", "tensorShape": {"dim": [{"size": "3"}, {"size": "3"}, {"size": "192"}, {"size": "1"}]}}}, "dtype": {"type": "DT_FLOAT"}}}, {"name": "StatefulPartitionedCall/WireFrameModel/MLSD_extractor/block_5_depthwise/depthwise_bn_offset", "op": "Const", "attr": {"value": {"tensor": {"dtype": "DT_FLOAT", "tensorShape": {"dim": [{"size": "192"}]}}}, "dtype": {"type": "DT_FLOAT"}}}, {"name": "StatefulPartitionedCall/WireFrameModel/MLSD_extractor/block_5_project/Conv2D_weights", "op": "Const", "attr": {"value": {"tensor": {"dtype": "DT_FLOAT", "tensorShape": {"dim": [{"size": "1"}, {"size": "1"}, {"size": "192"}, {"size": "32"}]}}}, "dtype": {"type": "DT_FLOAT"}}}, {"name": "StatefulPartitionedCall/WireFrameModel/MLSD_extractor/block_5_project/Conv2D_bn_offset", "op": "Const", "attr": {"value": {"tensor": {"dtype": "DT_FLOAT", "tensorShape": {"dim": [{"size": "32"}]}}}, "dtype": {"type": "DT_FLOAT"}}}, {"name": "StatefulPartitionedCall/WireFrameModel/decoder_fpn/upblock/conv_bn__act/conv/Conv2D_weights", "op": "Const", "attr": {"value": {"tensor": {"dtype": "DT_FLOAT", "tensorShape": {"dim": [{"size": "1"}, {"size": "1"}, {"size": "32"}, {"size": "64"}]}}}, "dtype": {"type": "DT_FLOAT"}}}, {"name": "StatefulPartitionedCall/WireFrameModel/decoder_fpn/upblock/conv_bn__act/conv/Conv2D_bn_offset", "op": "Const", "attr": {"value": {"tensor": {"dtype": "DT_FLOAT", "tensorShape": {"dim": [{"size": "64"}]}}}, "dtype": {"type": "DT_FLOAT"}}}, {"name": "StatefulPartitionedCall/WireFrameModel/MLSD_extractor/block_6_expand/Conv2D_weights", "op": "Const", "attr": {"dtype": {"type": "DT_FLOAT"}, "value": {"tensor": {"dtype": "DT_FLOAT", "tensorShape": {"dim": [{"size": "1"}, {"size": "1"}, {"size": "32"}, {"size": "192"}]}}}}}, {"name": "StatefulPartitionedCall/WireFrameModel/MLSD_extractor/block_6_expand/Conv2D_bn_offset", "op": "Const", "attr": {"dtype": {"type": "DT_FLOAT"}, "value": {"tensor": {"dtype": "DT_FLOAT", "tensorShape": {"dim": [{"size": "192"}]}}}}}, {"name": "StatefulPartitionedCall/WireFrameModel/MLSD_extractor/block_6_depthwise/depthwise_weights", "op": "Const", "attr": {"value": {"tensor": {"dtype": "DT_FLOAT", "tensorShape": {"dim": [{"size": "3"}, {"size": "3"}, {"size": "192"}, {"size": "1"}]}}}, "dtype": {"type": "DT_FLOAT"}}}, {"name": "StatefulPartitionedCall/WireFrameModel/MLSD_extractor/block_6_depthwise/depthwise_bn_offset", "op": "Const", "attr": {"dtype": {"type": "DT_FLOAT"}, "value": {"tensor": {"dtype": "DT_FLOAT", "tensorShape": {"dim": [{"size": "192"}]}}}}}, {"name": "StatefulPartitionedCall/WireFrameModel/MLSD_extractor/block_6_project/Conv2D_weights", "op": "Const", "attr": {"dtype": {"type": "DT_FLOAT"}, "value": {"tensor": {"dtype": "DT_FLOAT", "tensorShape": {"dim": [{"size": "1"}, {"size": "1"}, {"size": "192"}, {"size": "64"}]}}}}}, {"name": "StatefulPartitionedCall/WireFrameModel/MLSD_extractor/block_6_project/Conv2D_bn_offset", "op": "Const", "attr": {"dtype": {"type": "DT_FLOAT"}, "value": {"tensor": {"dtype": "DT_FLOAT", "tensorShape": {"dim": [{"size": "64"}]}}}}}, {"name": "StatefulPartitionedCall/WireFrameModel/MLSD_extractor/block_7_expand/Conv2D_weights", "op": "Const", "attr": {"dtype": {"type": "DT_FLOAT"}, "value": {"tensor": {"dtype": "DT_FLOAT", "tensorShape": {"dim": [{"size": "1"}, {"size": "1"}, {"size": "64"}, {"size": "384"}]}}}}}, {"name": "StatefulPartitionedCall/WireFrameModel/MLSD_extractor/block_7_expand/Conv2D_bn_offset", "op": "Const", "attr": {"dtype": {"type": "DT_FLOAT"}, "value": {"tensor": {"dtype": "DT_FLOAT", "tensorShape": {"dim": [{"size": "384"}]}}}}}, {"name": "StatefulPartitionedCall/WireFrameModel/MLSD_extractor/block_7_depthwise/depthwise_weights", "op": "Const", "attr": {"value": {"tensor": {"dtype": "DT_FLOAT", "tensorShape": {"dim": [{"size": "3"}, {"size": "3"}, {"size": "384"}, {"size": "1"}]}}}, "dtype": {"type": "DT_FLOAT"}}}, {"name": "StatefulPartitionedCall/WireFrameModel/MLSD_extractor/block_7_depthwise/depthwise_bn_offset", "op": "Const", "attr": {"value": {"tensor": {"dtype": "DT_FLOAT", "tensorShape": {"dim": [{"size": "384"}]}}}, "dtype": {"type": "DT_FLOAT"}}}, {"name": "StatefulPartitionedCall/WireFrameModel/MLSD_extractor/block_7_project/Conv2D_weights", "op": "Const", "attr": {"dtype": {"type": "DT_FLOAT"}, "value": {"tensor": {"dtype": "DT_FLOAT", "tensorShape": {"dim": [{"size": "1"}, {"size": "1"}, {"size": "384"}, {"size": "64"}]}}}}}, {"name": "StatefulPartitionedCall/WireFrameModel/MLSD_extractor/block_7_project/Conv2D_bn_offset", "op": "Const", "attr": {"dtype": {"type": "DT_FLOAT"}, "value": {"tensor": {"dtype": "DT_FLOAT", "tensorShape": {"dim": [{"size": "64"}]}}}}}, {"name": "StatefulPartitionedCall/WireFrameModel/MLSD_extractor/block_8_expand/Conv2D_weights", "op": "Const", "attr": {"value": {"tensor": {"dtype": "DT_FLOAT", "tensorShape": {"dim": [{"size": "1"}, {"size": "1"}, {"size": "64"}, {"size": "384"}]}}}, "dtype": {"type": "DT_FLOAT"}}}, {"name": "StatefulPartitionedCall/WireFrameModel/MLSD_extractor/block_8_expand/Conv2D_bn_offset", "op": "Const", "attr": {"dtype": {"type": "DT_FLOAT"}, "value": {"tensor": {"dtype": "DT_FLOAT", "tensorShape": {"dim": [{"size": "384"}]}}}}}, {"name": "StatefulPartitionedCall/WireFrameModel/MLSD_extractor/block_8_depthwise/depthwise_weights", "op": "Const", "attr": {"dtype": {"type": "DT_FLOAT"}, "value": {"tensor": {"dtype": "DT_FLOAT", "tensorShape": {"dim": [{"size": "3"}, {"size": "3"}, {"size": "384"}, {"size": "1"}]}}}}}, {"name": "StatefulPartitionedCall/WireFrameModel/MLSD_extractor/block_8_depthwise/depthwise_bn_offset", "op": "Const", "attr": {"dtype": {"type": "DT_FLOAT"}, "value": {"tensor": {"dtype": "DT_FLOAT", "tensorShape": {"dim": [{"size": "384"}]}}}}}, {"name": "StatefulPartitionedCall/WireFrameModel/MLSD_extractor/block_8_project/Conv2D_weights", "op": "Const", "attr": {"dtype": {"type": "DT_FLOAT"}, "value": {"tensor": {"dtype": "DT_FLOAT", "tensorShape": {"dim": [{"size": "1"}, {"size": "1"}, {"size": "384"}, {"size": "64"}]}}}}}, {"name": "StatefulPartitionedCall/WireFrameModel/MLSD_extractor/block_8_project/Conv2D_bn_offset", "op": "Const", "attr": {"value": {"tensor": {"dtype": "DT_FLOAT", "tensorShape": {"dim": [{"size": "64"}]}}}, "dtype": {"type": "DT_FLOAT"}}}, {"name": "StatefulPartitionedCall/WireFrameModel/MLSD_extractor/block_9_expand/Conv2D_weights", "op": "Const", "attr": {"value": {"tensor": {"dtype": "DT_FLOAT", "tensorShape": {"dim": [{"size": "1"}, {"size": "1"}, {"size": "64"}, {"size": "384"}]}}}, "dtype": {"type": "DT_FLOAT"}}}, {"name": "StatefulPartitionedCall/WireFrameModel/MLSD_extractor/block_9_expand/Conv2D_bn_offset", "op": "Const", "attr": {"value": {"tensor": {"dtype": "DT_FLOAT", "tensorShape": {"dim": [{"size": "384"}]}}}, "dtype": {"type": "DT_FLOAT"}}}, {"name": "StatefulPartitionedCall/WireFrameModel/MLSD_extractor/block_9_depthwise/depthwise_weights", "op": "Const", "attr": {"dtype": {"type": "DT_FLOAT"}, "value": {"tensor": {"dtype": "DT_FLOAT", "tensorShape": {"dim": [{"size": "3"}, {"size": "3"}, {"size": "384"}, {"size": "1"}]}}}}}, {"name": "StatefulPartitionedCall/WireFrameModel/MLSD_extractor/block_9_depthwise/depthwise_bn_offset", "op": "Const", "attr": {"value": {"tensor": {"dtype": "DT_FLOAT", "tensorShape": {"dim": [{"size": "384"}]}}}, "dtype": {"type": "DT_FLOAT"}}}, {"name": "StatefulPartitionedCall/WireFrameModel/MLSD_extractor/block_9_project/Conv2D_weights", "op": "Const", "attr": {"dtype": {"type": "DT_FLOAT"}, "value": {"tensor": {"dtype": "DT_FLOAT", "tensorShape": {"dim": [{"size": "1"}, {"size": "1"}, {"size": "384"}, {"size": "64"}]}}}}}, {"name": "StatefulPartitionedCall/WireFrameModel/MLSD_extractor/block_9_project/Conv2D_bn_offset", "op": "Const", "attr": {"dtype": {"type": "DT_FLOAT"}, "value": {"tensor": {"dtype": "DT_FLOAT", "tensorShape": {"dim": [{"size": "64"}]}}}}}, {"name": "StatefulPartitionedCall/WireFrameModel/decoder_fpn/upblock/conv_bn__act_1/conv/Conv2D_weights", "op": "Const", "attr": {"dtype": {"type": "DT_FLOAT"}, "value": {"tensor": {"dtype": "DT_FLOAT", "tensorShape": {"dim": [{"size": "1"}, {"size": "1"}, {"size": "64"}, {"size": "64"}]}}}}}, {"name": "StatefulPartitionedCall/WireFrameModel/decoder_fpn/upblock/conv_bn__act_1/conv/Conv2D_bn_offset", "op": "Const", "attr": {"value": {"tensor": {"dtype": "DT_FLOAT", "tensorShape": {"dim": [{"size": "64"}]}}}, "dtype": {"type": "DT_FLOAT"}}}, {"name": "StatefulPartitionedCall/WireFrameModel/decoder_fpn/upblock/conv_bn__act_2/conv/Conv2D_weights", "op": "Const", "attr": {"dtype": {"type": "DT_FLOAT"}, "value": {"tensor": {"dtype": "DT_FLOAT", "tensorShape": {"dim": [{"size": "3"}, {"size": "3"}, {"size": "128"}, {"size": "128"}]}}}}}, {"name": "StatefulPartitionedCall/WireFrameModel/decoder_fpn/upblock/conv_bn__act_2/conv/Conv2D_bn_offset", "op": "Const", "attr": {"value": {"tensor": {"dtype": "DT_FLOAT", "tensorShape": {"dim": [{"size": "128"}]}}}, "dtype": {"type": "DT_FLOAT"}}}, {"name": "StatefulPartitionedCall/WireFrameModel/decoder_fpn/upblock/conv_bn__act_3/conv/Conv2D_weights", "op": "Const", "attr": {"dtype": {"type": "DT_FLOAT"}, "value": {"tensor": {"dtype": "DT_FLOAT", "tensorShape": {"dim": [{"size": "3"}, {"size": "3"}, {"size": "128"}, {"size": "64"}]}}}}}, {"name": "StatefulPartitionedCall/WireFrameModel/decoder_fpn/upblock/conv_bn__act_3/conv/Conv2D_bn_offset", "op": "Const", "attr": {"value": {"tensor": {"dtype": "DT_FLOAT", "tensorShape": {"dim": [{"size": "64"}]}}}, "dtype": {"type": "DT_FLOAT"}}}, {"name": "StatefulPartitionedCall/WireFrameModel/decoder_fpn/upblock_1/conv_bn__act_5/conv/Conv2D_weights", "op": "Const", "attr": {"value": {"tensor": {"dtype": "DT_FLOAT", "tensorShape": {"dim": [{"size": "1"}, {"size": "1"}, {"size": "64"}, {"size": "32"}]}}}, "dtype": {"type": "DT_FLOAT"}}}, {"name": "StatefulPartitionedCall/WireFrameModel/decoder_fpn/upblock_1/conv_bn__act_5/conv/Conv2D_bn_offset", "op": "Const", "attr": {"dtype": {"type": "DT_FLOAT"}, "value": {"tensor": {"dtype": "DT_FLOAT", "tensorShape": {"dim": [{"size": "32"}]}}}}}, {"name": "StatefulPartitionedCall/WireFrameModel/decoder_fpn/upblock_1/conv_bn__act_6/conv/Conv2D_weights", "op": "Const", "attr": {"value": {"tensor": {"dtype": "DT_FLOAT", "tensorShape": {"dim": [{"size": "3"}, {"size": "3"}, {"size": "64"}, {"size": "64"}]}}}, "dtype": {"type": "DT_FLOAT"}}}, {"name": "StatefulPartitionedCall/WireFrameModel/decoder_fpn/upblock_1/conv_bn__act_6/conv/Conv2D_bn_offset", "op": "Const", "attr": {"dtype": {"type": "DT_FLOAT"}, "value": {"tensor": {"dtype": "DT_FLOAT", "tensorShape": {"dim": [{"size": "64"}]}}}}}, {"name": "StatefulPartitionedCall/WireFrameModel/decoder_fpn/upblock_1/conv_bn__act_7/conv/Conv2D_weights", "op": "Const", "attr": {"value": {"tensor": {"dtype": "DT_FLOAT", "tensorShape": {"dim": [{"size": "3"}, {"size": "3"}, {"size": "64"}, {"size": "64"}]}}}, "dtype": {"type": "DT_FLOAT"}}}, {"name": "StatefulPartitionedCall/WireFrameModel/decoder_fpn/upblock_1/conv_bn__act_7/conv/Conv2D_bn_offset", "op": "Const", "attr": {"dtype": {"type": "DT_FLOAT"}, "value": {"tensor": {"dtype": "DT_FLOAT", "tensorShape": {"dim": [{"size": "64"}]}}}}}, {"name": "StatefulPartitionedCall/WireFrameModel/Decoder/conv_bn__act_8/bn/FusedBatchNormV3/Scaled", "op": "Const", "attr": {"dtype": {"type": "DT_FLOAT"}, "value": {"tensor": {"dtype": "DT_FLOAT", "tensorShape": {"dim": [{"size": "64"}]}}}}}, {"name": "StatefulPartitionedCall/WireFrameModel/Decoder/conv_bn__act_9/conv/Conv2D_weights", "op": "Const", "attr": {"value": {"tensor": {"dtype": "DT_FLOAT", "tensorShape": {"dim": [{"size": "3"}, {"size": "3"}, {"size": "64"}, {"size": "64"}]}}}, "dtype": {"type": "DT_FLOAT"}}}, {"name": "StatefulPartitionedCall/WireFrameModel/Decoder/conv_bn__act_9/conv/Conv2D_bn_offset", "op": "Const", "attr": {"value": {"tensor": {"dtype": "DT_FLOAT", "tensorShape": {"dim": [{"size": "64"}]}}}, "dtype": {"type": "DT_FLOAT"}}}, {"name": "StatefulPartitionedCall/WireFrameModel/Decoder/conv_bn__act_8/bn/FusedBatchNormV3/Offset", "op": "Const", "attr": {"dtype": {"type": "DT_FLOAT"}, "value": {"tensor": {"dtype": "DT_FLOAT", "tensorShape": {"dim": [{"size": "64"}]}}}}}, {"name": "StatefulPartitionedCall/WireFrameModel/tf_op_layer_RealDiv/RealDiv", "op": "Mul", "input": ["input_image", "ConstantFolding/StatefulPartitionedCall/WireFrameModel/tf_op_layer_RealDiv/RealDiv_recip"], "attr": {"_cloned": {"b": true}, "T": {"type": "DT_FLOAT"}}}, {"name": "StatefulPartitionedCall/WireFrameModel/tf_op_layer_Sub/Sub", "op": "Sub", "input": ["StatefulPartitionedCall/WireFrameModel/tf_op_layer_RealDiv/RealDiv", "StatefulPartitionedCall/WireFrameModel/tf_op_layer_Sub/Sub/y"], "attr": {"T": {"type": "DT_FLOAT"}, "_cloned": {"b": true}}}, {"name": "StatefulPartitionedCall/WireFrameModel/MLSD_extractor/Conv1_pad/Pad", "op": "Pad", "input": ["StatefulPartitionedCall/WireFrameModel/tf_op_layer_Sub/Sub", "StatefulPartitionedCall/WireFrameModel/MLSD_extractor/Conv1_pad/Pad/paddings"], "attr": {"T": {"type": "DT_FLOAT"}, "Tpaddings": {"type": "DT_INT32"}}}, {"name": "StatefulPartitionedCall/WireFrameModel/MLSD_extractor/Conv1_relu/Relu6", "op": "_FusedConv2D", "input": ["StatefulPartitionedCall/WireFrameModel/MLSD_extractor/Conv1_pad/Pad", "StatefulPartitionedCall/WireFrameModel/MLSD_extractor/Conv1/Conv2D_weights", "StatefulPartitionedCall/WireFrameModel/MLSD_extractor/Conv1/Conv2D_bn_offset"], "device": "/device:CPU:0", "attr": {"num_args": {"i": "1"}, "data_format": {"s": "TkhXQw=="}, "fused_ops": {"list": {"s": ["Qmlhc0FkZA==", "UmVsdTY="]}}, "use_cudnn_on_gpu": {"b": true}, "strides": {"list": {"i": ["1", "2", "2", "1"]}}, "explicit_paddings": {"list": {}}, "T": {"type": "DT_FLOAT"}, "dilations": {"list": {"i": ["1", "1", "1", "1"]}}, "epsilon": {"f": 0.0}, "padding": {"s": "VkFMSUQ="}}}, {"name": "StatefulPartitionedCall/WireFrameModel/MLSD_extractor/expanded_conv_depthwise/depthwise", "op": "FusedDepthwiseConv2dNative", "input": ["StatefulPartitionedCall/WireFrameModel/MLSD_extractor/Conv1_relu/Relu6", "StatefulPartitionedCall/WireFrameModel/MLSD_extractor/expanded_conv_depthwise/depthwise_weights", "StatefulPartitionedCall/WireFrameModel/MLSD_extractor/expanded_conv_depthwise/depthwise_bn_offset"], "attr": {"dilations": {"list": {"i": ["1", "1", "1", "1"]}}, "fused_ops": {"list": {"s": ["Qmlhc0FkZA==", "UmVsdTY="]}}, "strides": {"list": {"i": ["1", "1", "1", "1"]}}, "T": {"type": "DT_FLOAT"}, "padding": {"s": "U0FNRQ=="}, "explicit_paddings": {"list": {}}, "data_format": {"s": "TkhXQw=="}, "num_args": {"i": "1"}}}, {"name": "StatefulPartitionedCall/WireFrameModel/MLSD_extractor/expanded_conv_project_BN/FusedBatchNormV3", "op": "_FusedConv2D", "input": ["StatefulPartitionedCall/WireFrameModel/MLSD_extractor/expanded_conv_depthwise/depthwise", "StatefulPartitionedCall/WireFrameModel/MLSD_extractor/expanded_conv_project/Conv2D_weights", "StatefulPartitionedCall/WireFrameModel/MLSD_extractor/expanded_conv_project/Conv2D_bn_offset"], "device": "/device:CPU:0", "attr": {"padding": {"s": "U0FNRQ=="}, "explicit_paddings": {"list": {}}, "epsilon": {"f": 0.0}, "data_format": {"s": "TkhXQw=="}, "num_args": {"i": "1"}, "strides": {"list": {"i": ["1", "1", "1", "1"]}}, "use_cudnn_on_gpu": {"b": true}, "T": {"type": "DT_FLOAT"}, "dilations": {"list": {"i": ["1", "1", "1", "1"]}}, "fused_ops": {"list": {"s": ["Qmlhc0FkZA=="]}}}}, {"name": "StatefulPartitionedCall/WireFrameModel/MLSD_extractor/block_1_expand_relu/Relu6", "op": "_FusedConv2D", "input": ["StatefulPartitionedCall/WireFrameModel/MLSD_extractor/expanded_conv_project_BN/FusedBatchNormV3", "StatefulPartitionedCall/WireFrameModel/MLSD_extractor/block_1_expand/Conv2D_weights", "StatefulPartitionedCall/WireFrameModel/MLSD_extractor/block_1_expand/Conv2D_bn_offset"], "device": "/device:CPU:0", "attr": {"use_cudnn_on_gpu": {"b": true}, "padding": {"s": "U0FNRQ=="}, "strides": {"list": {"i": ["1", "1", "1", "1"]}}, "data_format": {"s": "TkhXQw=="}, "explicit_paddings": {"list": {}}, "T": {"type": "DT_FLOAT"}, "num_args": {"i": "1"}, "dilations": {"list": {"i": ["1", "1", "1", "1"]}}, "epsilon": {"f": 0.0}, "fused_ops": {"list": {"s": ["Qmlhc0FkZA==", "UmVsdTY="]}}}}, {"name": "StatefulPartitionedCall/WireFrameModel/MLSD_extractor/block_1_pad/Pad", "op": "Pad", "input": ["StatefulPartitionedCall/WireFrameModel/MLSD_extractor/block_1_expand_relu/Relu6", "StatefulPartitionedCall/WireFrameModel/MLSD_extractor/block_1_pad/Pad/paddings"], "attr": {"Tpaddings": {"type": "DT_INT32"}, "T": {"type": "DT_FLOAT"}}}, {"name": "StatefulPartitionedCall/WireFrameModel/MLSD_extractor/block_1_depthwise/depthwise", "op": "FusedDepthwiseConv2dNative", "input": ["StatefulPartitionedCall/WireFrameModel/MLSD_extractor/block_1_pad/Pad", "StatefulPartitionedCall/WireFrameModel/MLSD_extractor/block_1_depthwise/depthwise_weights", "StatefulPartitionedCall/WireFrameModel/MLSD_extractor/block_1_depthwise/depthwise_bn_offset"], "attr": {"strides": {"list": {"i": ["1", "2", "2", "1"]}}, "padding": {"s": "VkFMSUQ="}, "data_format": {"s": "TkhXQw=="}, "T": {"type": "DT_FLOAT"}, "num_args": {"i": "1"}, "fused_ops": {"list": {"s": ["Qmlhc0FkZA==", "UmVsdTY="]}}, "dilations": {"list": {"i": ["1", "1", "1", "1"]}}, "explicit_paddings": {"list": {}}}}, {"name": "StatefulPartitionedCall/WireFrameModel/MLSD_extractor/block_1_project_BN/FusedBatchNormV3", "op": "_FusedConv2D", "input": ["StatefulPartitionedCall/WireFrameModel/MLSD_extractor/block_1_depthwise/depthwise", "StatefulPartitionedCall/WireFrameModel/MLSD_extractor/block_1_project/Conv2D_weights", "StatefulPartitionedCall/WireFrameModel/MLSD_extractor/block_1_project/Conv2D_bn_offset"], "device": "/device:CPU:0", "attr": {"dilations": {"list": {"i": ["1", "1", "1", "1"]}}, "use_cudnn_on_gpu": {"b": true}, "padding": {"s": "U0FNRQ=="}, "explicit_paddings": {"list": {}}, "strides": {"list": {"i": ["1", "1", "1", "1"]}}, "T": {"type": "DT_FLOAT"}, "num_args": {"i": "1"}, "fused_ops": {"list": {"s": ["Qmlhc0FkZA=="]}}, "epsilon": {"f": 0.0}, "data_format": {"s": "TkhXQw=="}}}, {"name": "StatefulPartitionedCall/WireFrameModel/MLSD_extractor/block_2_expand_relu/Relu6", "op": "_FusedConv2D", "input": ["StatefulPartitionedCall/WireFrameModel/MLSD_extractor/block_1_project_BN/FusedBatchNormV3", "StatefulPartitionedCall/WireFrameModel/MLSD_extractor/block_2_expand/Conv2D_weights", "StatefulPartitionedCall/WireFrameModel/MLSD_extractor/block_2_expand/Conv2D_bn_offset"], "device": "/device:CPU:0", "attr": {"fused_ops": {"list": {"s": ["Qmlhc0FkZA==", "UmVsdTY="]}}, "T": {"type": "DT_FLOAT"}, "dilations": {"list": {"i": ["1", "1", "1", "1"]}}, "padding": {"s": "U0FNRQ=="}, "use_cudnn_on_gpu": {"b": true}, "num_args": {"i": "1"}, "strides": {"list": {"i": ["1", "1", "1", "1"]}}, "data_format": {"s": "TkhXQw=="}, "explicit_paddings": {"list": {}}, "epsilon": {"f": 0.0}}}, {"name": "StatefulPartitionedCall/WireFrameModel/MLSD_extractor/block_2_depthwise/depthwise", "op": "FusedDepthwiseConv2dNative", "input": ["StatefulPartitionedCall/WireFrameModel/MLSD_extractor/block_2_expand_relu/Relu6", "StatefulPartitionedCall/WireFrameModel/MLSD_extractor/block_2_depthwise/depthwise_weights", "StatefulPartitionedCall/WireFrameModel/MLSD_extractor/block_2_depthwise/depthwise_bn_offset"], "attr": {"num_args": {"i": "1"}, "T": {"type": "DT_FLOAT"}, "dilations": {"list": {"i": ["1", "1", "1", "1"]}}, "data_format": {"s": "TkhXQw=="}, "explicit_paddings": {"list": {}}, "strides": {"list": {"i": ["1", "1", "1", "1"]}}, "fused_ops": {"list": {"s": ["Qmlhc0FkZA==", "UmVsdTY="]}}, "padding": {"s": "U0FNRQ=="}}}, {"name": "StatefulPartitionedCall/WireFrameModel/MLSD_extractor/block_2_project_BN/FusedBatchNormV3", "op": "_FusedConv2D", "input": ["StatefulPartitionedCall/WireFrameModel/MLSD_extractor/block_2_depthwise/depthwise", "StatefulPartitionedCall/WireFrameModel/MLSD_extractor/block_2_project/Conv2D_weights", "StatefulPartitionedCall/WireFrameModel/MLSD_extractor/block_2_project/Conv2D_bn_offset"], "device": "/device:CPU:0", "attr": {"T": {"type": "DT_FLOAT"}, "padding": {"s": "U0FNRQ=="}, "dilations": {"list": {"i": ["1", "1", "1", "1"]}}, "epsilon": {"f": 0.0}, "fused_ops": {"list": {"s": ["Qmlhc0FkZA=="]}}, "data_format": {"s": "TkhXQw=="}, "use_cudnn_on_gpu": {"b": true}, "strides": {"list": {"i": ["1", "1", "1", "1"]}}, "explicit_paddings": {"list": {}}, "num_args": {"i": "1"}}}, {"name": "StatefulPartitionedCall/WireFrameModel/MLSD_extractor/block_2_add/add", "op": "AddV2", "input": ["StatefulPartitionedCall/WireFrameModel/MLSD_extractor/block_1_project_BN/FusedBatchNormV3", "StatefulPartitionedCall/WireFrameModel/MLSD_extractor/block_2_project_BN/FusedBatchNormV3"], "attr": {"T": {"type": "DT_FLOAT"}}}, {"name": "StatefulPartitionedCall/WireFrameModel/decoder_fpn/upblock_1/conv_bn__act_4/re_lu_4/Relu", "op": "_FusedConv2D", "input": ["StatefulPartitionedCall/WireFrameModel/MLSD_extractor/block_2_add/add", "StatefulPartitionedCall/WireFrameModel/decoder_fpn/upblock_1/conv_bn__act_4/conv/Conv2D_weights", "StatefulPartitionedCall/WireFrameModel/decoder_fpn/upblock_1/conv_bn__act_4/conv/Conv2D_bn_offset"], "device": "/device:CPU:0", "attr": {"data_format": {"s": "TkhXQw=="}, "padding": {"s": "U0FNRQ=="}, "num_args": {"i": "1"}, "epsilon": {"f": 0.0}, "fused_ops": {"list": {"s": ["Qmlhc0FkZA==", "UmVsdQ=="]}}, "use_cudnn_on_gpu": {"b": true}, "explicit_paddings": {"list": {}}, "strides": {"list": {"i": ["1", "1", "1", "1"]}}, "T": {"type": "DT_FLOAT"}, "dilations": {"list": {"i": ["1", "1", "1", "1"]}}}}, {"name": "StatefulPartitionedCall/WireFrameModel/MLSD_extractor/block_3_expand_relu/Relu6", "op": "_FusedConv2D", "input": ["StatefulPartitionedCall/WireFrameModel/MLSD_extractor/block_2_add/add", "StatefulPartitionedCall/WireFrameModel/MLSD_extractor/block_3_expand/Conv2D_weights", "StatefulPartitionedCall/WireFrameModel/MLSD_extractor/block_3_expand/Conv2D_bn_offset"], "device": "/device:CPU:0", "attr": {"strides": {"list": {"i": ["1", "1", "1", "1"]}}, "data_format": {"s": "TkhXQw=="}, "epsilon": {"f": 0.0}, "T": {"type": "DT_FLOAT"}, "num_args": {"i": "1"}, "fused_ops": {"list": {"s": ["Qmlhc0FkZA==", "UmVsdTY="]}}, "dilations": {"list": {"i": ["1", "1", "1", "1"]}}, "explicit_paddings": {"list": {}}, "use_cudnn_on_gpu": {"b": true}, "padding": {"s": "U0FNRQ=="}}}, {"name": "StatefulPartitionedCall/WireFrameModel/MLSD_extractor/block_3_pad/Pad", "op": "Pad", "input": ["StatefulPartitionedCall/WireFrameModel/MLSD_extractor/block_3_expand_relu/Relu6", "StatefulPartitionedCall/WireFrameModel/MLSD_extractor/block_3_pad/Pad/paddings"], "attr": {"T": {"type": "DT_FLOAT"}, "Tpaddings": {"type": "DT_INT32"}}}, {"name": "StatefulPartitionedCall/WireFrameModel/MLSD_extractor/block_3_depthwise/depthwise", "op": "FusedDepthwiseConv2dNative", "input": ["StatefulPartitionedCall/WireFrameModel/MLSD_extractor/block_3_pad/Pad", "StatefulPartitionedCall/WireFrameModel/MLSD_extractor/block_3_depthwise/depthwise_weights", "StatefulPartitionedCall/WireFrameModel/MLSD_extractor/block_3_depthwise/depthwise_bn_offset"], "attr": {"padding": {"s": "VkFMSUQ="}, "explicit_paddings": {"list": {}}, "dilations": {"list": {"i": ["1", "1", "1", "1"]}}, "strides": {"list": {"i": ["1", "2", "2", "1"]}}, "fused_ops": {"list": {"s": ["Qmlhc0FkZA==", "UmVsdTY="]}}, "data_format": {"s": "TkhXQw=="}, "num_args": {"i": "1"}, "T": {"type": "DT_FLOAT"}}}, {"name": "StatefulPartitionedCall/WireFrameModel/MLSD_extractor/block_3_project_BN/FusedBatchNormV3", "op": "_FusedConv2D", "input": ["StatefulPartitionedCall/WireFrameModel/MLSD_extractor/block_3_depthwise/depthwise", "StatefulPartitionedCall/WireFrameModel/MLSD_extractor/block_3_project/Conv2D_weights", "StatefulPartitionedCall/WireFrameModel/MLSD_extractor/block_3_project/Conv2D_bn_offset"], "device": "/device:CPU:0", "attr": {"use_cudnn_on_gpu": {"b": true}, "strides": {"list": {"i": ["1", "1", "1", "1"]}}, "dilations": {"list": {"i": ["1", "1", "1", "1"]}}, "padding": {"s": "U0FNRQ=="}, "num_args": {"i": "1"}, "T": {"type": "DT_FLOAT"}, "epsilon": {"f": 0.0}, "data_format": {"s": "TkhXQw=="}, "fused_ops": {"list": {"s": ["Qmlhc0FkZA=="]}}, "explicit_paddings": {"list": {}}}}, {"name": "StatefulPartitionedCall/WireFrameModel/MLSD_extractor/block_4_expand_relu/Relu6", "op": "_FusedConv2D", "input": ["StatefulPartitionedCall/WireFrameModel/MLSD_extractor/block_3_project_BN/FusedBatchNormV3", "StatefulPartitionedCall/WireFrameModel/MLSD_extractor/block_4_expand/Conv2D_weights", "StatefulPartitionedCall/WireFrameModel/MLSD_extractor/block_4_expand/Conv2D_bn_offset"], "device": "/device:CPU:0", "attr": {"dilations": {"list": {"i": ["1", "1", "1", "1"]}}, "explicit_paddings": {"list": {}}, "T": {"type": "DT_FLOAT"}, "use_cudnn_on_gpu": {"b": true}, "fused_ops": {"list": {"s": ["Qmlhc0FkZA==", "UmVsdTY="]}}, "strides": {"list": {"i": ["1", "1", "1", "1"]}}, "padding": {"s": "U0FNRQ=="}, "data_format": {"s": "TkhXQw=="}, "epsilon": {"f": 0.0}, "num_args": {"i": "1"}}}, {"name": "StatefulPartitionedCall/WireFrameModel/MLSD_extractor/block_4_depthwise/depthwise", "op": "FusedDepthwiseConv2dNative", "input": ["StatefulPartitionedCall/WireFrameModel/MLSD_extractor/block_4_expand_relu/Relu6", "StatefulPartitionedCall/WireFrameModel/MLSD_extractor/block_4_depthwise/depthwise_weights", "StatefulPartitionedCall/WireFrameModel/MLSD_extractor/block_4_depthwise/depthwise_bn_offset"], "attr": {"strides": {"list": {"i": ["1", "1", "1", "1"]}}, "fused_ops": {"list": {"s": ["Qmlhc0FkZA==", "UmVsdTY="]}}, "explicit_paddings": {"list": {}}, "data_format": {"s": "TkhXQw=="}, "T": {"type": "DT_FLOAT"}, "num_args": {"i": "1"}, "dilations": {"list": {"i": ["1", "1", "1", "1"]}}, "padding": {"s": "U0FNRQ=="}}}, {"name": "StatefulPartitionedCall/WireFrameModel/MLSD_extractor/block_4_project_BN/FusedBatchNormV3", "op": "_FusedConv2D", "input": ["StatefulPartitionedCall/WireFrameModel/MLSD_extractor/block_4_depthwise/depthwise", "StatefulPartitionedCall/WireFrameModel/MLSD_extractor/block_4_project/Conv2D_weights", "StatefulPartitionedCall/WireFrameModel/MLSD_extractor/block_4_project/Conv2D_bn_offset"], "device": "/device:CPU:0", "attr": {"T": {"type": "DT_FLOAT"}, "explicit_paddings": {"list": {}}, "data_format": {"s": "TkhXQw=="}, "num_args": {"i": "1"}, "epsilon": {"f": 0.0}, "dilations": {"list": {"i": ["1", "1", "1", "1"]}}, "use_cudnn_on_gpu": {"b": true}, "strides": {"list": {"i": ["1", "1", "1", "1"]}}, "fused_ops": {"list": {"s": ["Qmlhc0FkZA=="]}}, "padding": {"s": "U0FNRQ=="}}}, {"name": "StatefulPartitionedCall/WireFrameModel/MLSD_extractor/block_4_add/add", "op": "AddV2", "input": ["StatefulPartitionedCall/WireFrameModel/MLSD_extractor/block_3_project_BN/FusedBatchNormV3", "StatefulPartitionedCall/WireFrameModel/MLSD_extractor/block_4_project_BN/FusedBatchNormV3"], "attr": {"T": {"type": "DT_FLOAT"}}}, {"name": "StatefulPartitionedCall/WireFrameModel/MLSD_extractor/block_5_expand_relu/Relu6", "op": "_FusedConv2D", "input": ["StatefulPartitionedCall/WireFrameModel/MLSD_extractor/block_4_add/add", "StatefulPartitionedCall/WireFrameModel/MLSD_extractor/block_5_expand/Conv2D_weights", "StatefulPartitionedCall/WireFrameModel/MLSD_extractor/block_5_expand/Conv2D_bn_offset"], "device": "/device:CPU:0", "attr": {"dilations": {"list": {"i": ["1", "1", "1", "1"]}}, "data_format": {"s": "TkhXQw=="}, "epsilon": {"f": 0.0}, "strides": {"list": {"i": ["1", "1", "1", "1"]}}, "fused_ops": {"list": {"s": ["Qmlhc0FkZA==", "UmVsdTY="]}}, "T": {"type": "DT_FLOAT"}, "use_cudnn_on_gpu": {"b": true}, "num_args": {"i": "1"}, "explicit_paddings": {"list": {}}, "padding": {"s": "U0FNRQ=="}}}, {"name": "StatefulPartitionedCall/WireFrameModel/MLSD_extractor/block_5_depthwise/depthwise", "op": "FusedDepthwiseConv2dNative", "input": ["StatefulPartitionedCall/WireFrameModel/MLSD_extractor/block_5_expand_relu/Relu6", "StatefulPartitionedCall/WireFrameModel/MLSD_extractor/block_5_depthwise/depthwise_weights", "StatefulPartitionedCall/WireFrameModel/MLSD_extractor/block_5_depthwise/depthwise_bn_offset"], "attr": {"padding": {"s": "U0FNRQ=="}, "strides": {"list": {"i": ["1", "1", "1", "1"]}}, "T": {"type": "DT_FLOAT"}, "explicit_paddings": {"list": {}}, "dilations": {"list": {"i": ["1", "1", "1", "1"]}}, "fused_ops": {"list": {"s": ["Qmlhc0FkZA==", "UmVsdTY="]}}, "data_format": {"s": "TkhXQw=="}, "num_args": {"i": "1"}}}, {"name": "StatefulPartitionedCall/WireFrameModel/MLSD_extractor/block_5_project_BN/FusedBatchNormV3", "op": "_FusedConv2D", "input": ["StatefulPartitionedCall/WireFrameModel/MLSD_extractor/block_5_depthwise/depthwise", "StatefulPartitionedCall/WireFrameModel/MLSD_extractor/block_5_project/Conv2D_weights", "StatefulPartitionedCall/WireFrameModel/MLSD_extractor/block_5_project/Conv2D_bn_offset"], "device": "/device:CPU:0", "attr": {"T": {"type": "DT_FLOAT"}, "fused_ops": {"list": {"s": ["Qmlhc0FkZA=="]}}, "strides": {"list": {"i": ["1", "1", "1", "1"]}}, "dilations": {"list": {"i": ["1", "1", "1", "1"]}}, "explicit_paddings": {"list": {}}, "epsilon": {"f": 0.0}, "use_cudnn_on_gpu": {"b": true}, "num_args": {"i": "1"}, "data_format": {"s": "TkhXQw=="}, "padding": {"s": "U0FNRQ=="}}}, {"name": "StatefulPartitionedCall/WireFrameModel/MLSD_extractor/block_5_add/add", "op": "AddV2", "input": ["StatefulPartitionedCall/WireFrameModel/MLSD_extractor/block_4_add/add", "StatefulPartitionedCall/WireFrameModel/MLSD_extractor/block_5_project_BN/FusedBatchNormV3"], "attr": {"T": {"type": "DT_FLOAT"}}}, {"name": "StatefulPartitionedCall/WireFrameModel/decoder_fpn/upblock/conv_bn__act/re_lu/Relu", "op": "_FusedConv2D", "input": ["StatefulPartitionedCall/WireFrameModel/MLSD_extractor/block_5_add/add", "StatefulPartitionedCall/WireFrameModel/decoder_fpn/upblock/conv_bn__act/conv/Conv2D_weights", "StatefulPartitionedCall/WireFrameModel/decoder_fpn/upblock/conv_bn__act/conv/Conv2D_bn_offset"], "device": "/device:CPU:0", "attr": {"dilations": {"list": {"i": ["1", "1", "1", "1"]}}, "epsilon": {"f": 0.0}, "strides": {"list": {"i": ["1", "1", "1", "1"]}}, "num_args": {"i": "1"}, "explicit_paddings": {"list": {}}, "data_format": {"s": "TkhXQw=="}, "T": {"type": "DT_FLOAT"}, "fused_ops": {"list": {"s": ["Qmlhc0FkZA==", "UmVsdQ=="]}}, "padding": {"s": "U0FNRQ=="}, "use_cudnn_on_gpu": {"b": true}}}, {"name": "StatefulPartitionedCall/WireFrameModel/MLSD_extractor/block_6_expand_relu/Relu6", "op": "_FusedConv2D", "input": ["StatefulPartitionedCall/WireFrameModel/MLSD_extractor/block_5_add/add", "StatefulPartitionedCall/WireFrameModel/MLSD_extractor/block_6_expand/Conv2D_weights", "StatefulPartitionedCall/WireFrameModel/MLSD_extractor/block_6_expand/Conv2D_bn_offset"], "device": "/device:CPU:0", "attr": {"padding": {"s": "U0FNRQ=="}, "data_format": {"s": "TkhXQw=="}, "strides": {"list": {"i": ["1", "1", "1", "1"]}}, "fused_ops": {"list": {"s": ["Qmlhc0FkZA==", "UmVsdTY="]}}, "T": {"type": "DT_FLOAT"}, "use_cudnn_on_gpu": {"b": true}, "dilations": {"list": {"i": ["1", "1", "1", "1"]}}, "epsilon": {"f": 0.0}, "explicit_paddings": {"list": {}}, "num_args": {"i": "1"}}}, {"name": "StatefulPartitionedCall/WireFrameModel/MLSD_extractor/block_6_pad/Pad", "op": "Pad", "input": ["StatefulPartitionedCall/WireFrameModel/MLSD_extractor/block_6_expand_relu/Relu6", "StatefulPartitionedCall/WireFrameModel/MLSD_extractor/block_6_pad/Pad/paddings"], "attr": {"T": {"type": "DT_FLOAT"}, "Tpaddings": {"type": "DT_INT32"}}}, {"name": "StatefulPartitionedCall/WireFrameModel/MLSD_extractor/block_6_depthwise/depthwise", "op": "FusedDepthwiseConv2dNative", "input": ["StatefulPartitionedCall/WireFrameModel/MLSD_extractor/block_6_pad/Pad", "StatefulPartitionedCall/WireFrameModel/MLSD_extractor/block_6_depthwise/depthwise_weights", "StatefulPartitionedCall/WireFrameModel/MLSD_extractor/block_6_depthwise/depthwise_bn_offset"], "attr": {"strides": {"list": {"i": ["1", "2", "2", "1"]}}, "fused_ops": {"list": {"s": ["Qmlhc0FkZA==", "UmVsdTY="]}}, "explicit_paddings": {"list": {}}, "num_args": {"i": "1"}, "data_format": {"s": "TkhXQw=="}, "dilations": {"list": {"i": ["1", "1", "1", "1"]}}, "padding": {"s": "VkFMSUQ="}, "T": {"type": "DT_FLOAT"}}}, {"name": "StatefulPartitionedCall/WireFrameModel/MLSD_extractor/block_6_project_BN/FusedBatchNormV3", "op": "_FusedConv2D", "input": ["StatefulPartitionedCall/WireFrameModel/MLSD_extractor/block_6_depthwise/depthwise", "StatefulPartitionedCall/WireFrameModel/MLSD_extractor/block_6_project/Conv2D_weights", "StatefulPartitionedCall/WireFrameModel/MLSD_extractor/block_6_project/Conv2D_bn_offset"], "device": "/device:CPU:0", "attr": {"fused_ops": {"list": {"s": ["Qmlhc0FkZA=="]}}, "strides": {"list": {"i": ["1", "1", "1", "1"]}}, "data_format": {"s": "TkhXQw=="}, "T": {"type": "DT_FLOAT"}, "use_cudnn_on_gpu": {"b": true}, "dilations": {"list": {"i": ["1", "1", "1", "1"]}}, "epsilon": {"f": 0.0}, "explicit_paddings": {"list": {}}, "padding": {"s": "U0FNRQ=="}, "num_args": {"i": "1"}}}, {"name": "StatefulPartitionedCall/WireFrameModel/MLSD_extractor/block_7_expand_relu/Relu6", "op": "_FusedConv2D", "input": ["StatefulPartitionedCall/WireFrameModel/MLSD_extractor/block_6_project_BN/FusedBatchNormV3", "StatefulPartitionedCall/WireFrameModel/MLSD_extractor/block_7_expand/Conv2D_weights", "StatefulPartitionedCall/WireFrameModel/MLSD_extractor/block_7_expand/Conv2D_bn_offset"], "device": "/device:CPU:0", "attr": {"fused_ops": {"list": {"s": ["Qmlhc0FkZA==", "UmVsdTY="]}}, "padding": {"s": "U0FNRQ=="}, "T": {"type": "DT_FLOAT"}, "strides": {"list": {"i": ["1", "1", "1", "1"]}}, "epsilon": {"f": 0.0}, "dilations": {"list": {"i": ["1", "1", "1", "1"]}}, "use_cudnn_on_gpu": {"b": true}, "data_format": {"s": "TkhXQw=="}, "explicit_paddings": {"list": {}}, "num_args": {"i": "1"}}}, {"name": "StatefulPartitionedCall/WireFrameModel/MLSD_extractor/block_7_depthwise/depthwise", "op": "FusedDepthwiseConv2dNative", "input": ["StatefulPartitionedCall/WireFrameModel/MLSD_extractor/block_7_expand_relu/Relu6", "StatefulPartitionedCall/WireFrameModel/MLSD_extractor/block_7_depthwise/depthwise_weights", "StatefulPartitionedCall/WireFrameModel/MLSD_extractor/block_7_depthwise/depthwise_bn_offset"], "attr": {"fused_ops": {"list": {"s": ["Qmlhc0FkZA==", "UmVsdTY="]}}, "dilations": {"list": {"i": ["1", "1", "1", "1"]}}, "padding": {"s": "U0FNRQ=="}, "T": {"type": "DT_FLOAT"}, "num_args": {"i": "1"}, "data_format": {"s": "TkhXQw=="}, "explicit_paddings": {"list": {}}, "strides": {"list": {"i": ["1", "1", "1", "1"]}}}}, {"name": "StatefulPartitionedCall/WireFrameModel/MLSD_extractor/block_7_project_BN/FusedBatchNormV3", "op": "_FusedConv2D", "input": ["StatefulPartitionedCall/WireFrameModel/MLSD_extractor/block_7_depthwise/depthwise", "StatefulPartitionedCall/WireFrameModel/MLSD_extractor/block_7_project/Conv2D_weights", "StatefulPartitionedCall/WireFrameModel/MLSD_extractor/block_7_project/Conv2D_bn_offset"], "device": "/device:CPU:0", "attr": {"padding": {"s": "U0FNRQ=="}, "explicit_paddings": {"list": {}}, "strides": {"list": {"i": ["1", "1", "1", "1"]}}, "use_cudnn_on_gpu": {"b": true}, "T": {"type": "DT_FLOAT"}, "num_args": {"i": "1"}, "epsilon": {"f": 0.0}, "data_format": {"s": "TkhXQw=="}, "dilations": {"list": {"i": ["1", "1", "1", "1"]}}, "fused_ops": {"list": {"s": ["Qmlhc0FkZA=="]}}}}, {"name": "StatefulPartitionedCall/WireFrameModel/MLSD_extractor/block_7_add/add", "op": "AddV2", "input": ["StatefulPartitionedCall/WireFrameModel/MLSD_extractor/block_6_project_BN/FusedBatchNormV3", "StatefulPartitionedCall/WireFrameModel/MLSD_extractor/block_7_project_BN/FusedBatchNormV3"], "attr": {"T": {"type": "DT_FLOAT"}}}, {"name": "StatefulPartitionedCall/WireFrameModel/MLSD_extractor/block_8_expand_relu/Relu6", "op": "_FusedConv2D", "input": ["StatefulPartitionedCall/WireFrameModel/MLSD_extractor/block_7_add/add", "StatefulPartitionedCall/WireFrameModel/MLSD_extractor/block_8_expand/Conv2D_weights", "StatefulPartitionedCall/WireFrameModel/MLSD_extractor/block_8_expand/Conv2D_bn_offset"], "device": "/device:CPU:0", "attr": {"epsilon": {"f": 0.0}, "num_args": {"i": "1"}, "fused_ops": {"list": {"s": ["Qmlhc0FkZA==", "UmVsdTY="]}}, "data_format": {"s": "TkhXQw=="}, "padding": {"s": "U0FNRQ=="}, "use_cudnn_on_gpu": {"b": true}, "explicit_paddings": {"list": {}}, "dilations": {"list": {"i": ["1", "1", "1", "1"]}}, "T": {"type": "DT_FLOAT"}, "strides": {"list": {"i": ["1", "1", "1", "1"]}}}}, {"name": "StatefulPartitionedCall/WireFrameModel/MLSD_extractor/block_8_depthwise/depthwise", "op": "FusedDepthwiseConv2dNative", "input": ["StatefulPartitionedCall/WireFrameModel/MLSD_extractor/block_8_expand_relu/Relu6", "StatefulPartitionedCall/WireFrameModel/MLSD_extractor/block_8_depthwise/depthwise_weights", "StatefulPartitionedCall/WireFrameModel/MLSD_extractor/block_8_depthwise/depthwise_bn_offset"], "attr": {"padding": {"s": "U0FNRQ=="}, "strides": {"list": {"i": ["1", "1", "1", "1"]}}, "fused_ops": {"list": {"s": ["Qmlhc0FkZA==", "UmVsdTY="]}}, "dilations": {"list": {"i": ["1", "1", "1", "1"]}}, "num_args": {"i": "1"}, "T": {"type": "DT_FLOAT"}, "data_format": {"s": "TkhXQw=="}, "explicit_paddings": {"list": {}}}}, {"name": "StatefulPartitionedCall/WireFrameModel/MLSD_extractor/block_8_project_BN/FusedBatchNormV3", "op": "_FusedConv2D", "input": ["StatefulPartitionedCall/WireFrameModel/MLSD_extractor/block_8_depthwise/depthwise", "StatefulPartitionedCall/WireFrameModel/MLSD_extractor/block_8_project/Conv2D_weights", "StatefulPartitionedCall/WireFrameModel/MLSD_extractor/block_8_project/Conv2D_bn_offset"], "device": "/device:CPU:0", "attr": {"num_args": {"i": "1"}, "padding": {"s": "U0FNRQ=="}, "epsilon": {"f": 0.0}, "dilations": {"list": {"i": ["1", "1", "1", "1"]}}, "strides": {"list": {"i": ["1", "1", "1", "1"]}}, "explicit_paddings": {"list": {}}, "fused_ops": {"list": {"s": ["Qmlhc0FkZA=="]}}, "data_format": {"s": "TkhXQw=="}, "T": {"type": "DT_FLOAT"}, "use_cudnn_on_gpu": {"b": true}}}, {"name": "StatefulPartitionedCall/WireFrameModel/MLSD_extractor/block_8_add/add", "op": "AddV2", "input": ["StatefulPartitionedCall/WireFrameModel/MLSD_extractor/block_7_add/add", "StatefulPartitionedCall/WireFrameModel/MLSD_extractor/block_8_project_BN/FusedBatchNormV3"], "attr": {"T": {"type": "DT_FLOAT"}}}, {"name": "StatefulPartitionedCall/WireFrameModel/MLSD_extractor/block_9_expand_relu/Relu6", "op": "_FusedConv2D", "input": ["StatefulPartitionedCall/WireFrameModel/MLSD_extractor/block_8_add/add", "StatefulPartitionedCall/WireFrameModel/MLSD_extractor/block_9_expand/Conv2D_weights", "StatefulPartitionedCall/WireFrameModel/MLSD_extractor/block_9_expand/Conv2D_bn_offset"], "device": "/device:CPU:0", "attr": {"epsilon": {"f": 0.0}, "fused_ops": {"list": {"s": ["Qmlhc0FkZA==", "UmVsdTY="]}}, "strides": {"list": {"i": ["1", "1", "1", "1"]}}, "T": {"type": "DT_FLOAT"}, "padding": {"s": "U0FNRQ=="}, "dilations": {"list": {"i": ["1", "1", "1", "1"]}}, "data_format": {"s": "TkhXQw=="}, "num_args": {"i": "1"}, "explicit_paddings": {"list": {}}, "use_cudnn_on_gpu": {"b": true}}}, {"name": "StatefulPartitionedCall/WireFrameModel/MLSD_extractor/block_9_depthwise/depthwise", "op": "FusedDepthwiseConv2dNative", "input": ["StatefulPartitionedCall/WireFrameModel/MLSD_extractor/block_9_expand_relu/Relu6", "StatefulPartitionedCall/WireFrameModel/MLSD_extractor/block_9_depthwise/depthwise_weights", "StatefulPartitionedCall/WireFrameModel/MLSD_extractor/block_9_depthwise/depthwise_bn_offset"], "attr": {"num_args": {"i": "1"}, "fused_ops": {"list": {"s": ["Qmlhc0FkZA==", "UmVsdTY="]}}, "dilations": {"list": {"i": ["1", "1", "1", "1"]}}, "T": {"type": "DT_FLOAT"}, "explicit_paddings": {"list": {}}, "strides": {"list": {"i": ["1", "1", "1", "1"]}}, "data_format": {"s": "TkhXQw=="}, "padding": {"s": "U0FNRQ=="}}}, {"name": "StatefulPartitionedCall/WireFrameModel/MLSD_extractor/block_9_project_BN/FusedBatchNormV3", "op": "_FusedConv2D", "input": ["StatefulPartitionedCall/WireFrameModel/MLSD_extractor/block_9_depthwise/depthwise", "StatefulPartitionedCall/WireFrameModel/MLSD_extractor/block_9_project/Conv2D_weights", "StatefulPartitionedCall/WireFrameModel/MLSD_extractor/block_9_project/Conv2D_bn_offset"], "device": "/device:CPU:0", "attr": {"num_args": {"i": "1"}, "padding": {"s": "U0FNRQ=="}, "strides": {"list": {"i": ["1", "1", "1", "1"]}}, "epsilon": {"f": 0.0}, "T": {"type": "DT_FLOAT"}, "dilations": {"list": {"i": ["1", "1", "1", "1"]}}, "use_cudnn_on_gpu": {"b": true}, "explicit_paddings": {"list": {}}, "fused_ops": {"list": {"s": ["Qmlhc0FkZA=="]}}, "data_format": {"s": "TkhXQw=="}}}, {"name": "StatefulPartitionedCall/WireFrameModel/MLSD_extractor/block_9_add/add", "op": "AddV2", "input": ["StatefulPartitionedCall/WireFrameModel/MLSD_extractor/block_8_add/add", "StatefulPartitionedCall/WireFrameModel/MLSD_extractor/block_9_project_BN/FusedBatchNormV3"], "attr": {"T": {"type": "DT_FLOAT"}}}, {"name": "StatefulPartitionedCall/WireFrameModel/decoder_fpn/upblock/resize/ResizeBilinear", "op": "ResizeBilinear", "input": ["StatefulPartitionedCall/WireFrameModel/MLSD_extractor/block_9_add/add", "StatefulPartitionedCall/WireFrameModel/decoder_fpn/upblock/resize/size"], "attr": {"half_pixel_centers": {"b": true}, "align_corners": {"b": false}, "T": {"type": "DT_FLOAT"}}}, {"name": "StatefulPartitionedCall/WireFrameModel/decoder_fpn/upblock/conv_bn__act_1/re_lu_1/Relu", "op": "_FusedConv2D", "input": ["StatefulPartitionedCall/WireFrameModel/decoder_fpn/upblock/resize/ResizeBilinear", "StatefulPartitionedCall/WireFrameModel/decoder_fpn/upblock/conv_bn__act_1/conv/Conv2D_weights", "StatefulPartitionedCall/WireFrameModel/decoder_fpn/upblock/conv_bn__act_1/conv/Conv2D_bn_offset"], "device": "/device:CPU:0", "attr": {"num_args": {"i": "1"}, "data_format": {"s": "TkhXQw=="}, "T": {"type": "DT_FLOAT"}, "explicit_paddings": {"list": {}}, "use_cudnn_on_gpu": {"b": true}, "padding": {"s": "U0FNRQ=="}, "dilations": {"list": {"i": ["1", "1", "1", "1"]}}, "strides": {"list": {"i": ["1", "1", "1", "1"]}}, "epsilon": {"f": 0.0}, "fused_ops": {"list": {"s": ["Qmlhc0FkZA==", "UmVsdQ=="]}}}}, {"name": "StatefulPartitionedCall/WireFrameModel/decoder_fpn/upblock/concat", "op": "ConcatV2", "input": ["StatefulPartitionedCall/WireFrameModel/decoder_fpn/upblock/conv_bn__act/re_lu/Relu", "StatefulPartitionedCall/WireFrameModel/decoder_fpn/upblock/conv_bn__act_1/re_lu_1/Relu", "StatefulPartitionedCall/WireFrameModel/decoder_fpn/upblock/concat/axis"], "attr": {"Tidx": {"type": "DT_INT32"}, "N": {"i": "2"}, "T": {"type": "DT_FLOAT"}}}, {"name": "StatefulPartitionedCall/WireFrameModel/decoder_fpn/upblock/conv_bn__act_2/re_lu_2/Relu", "op": "_FusedConv2D", "input": ["StatefulPartitionedCall/WireFrameModel/decoder_fpn/upblock/concat", "StatefulPartitionedCall/WireFrameModel/decoder_fpn/upblock/conv_bn__act_2/conv/Conv2D_weights", "StatefulPartitionedCall/WireFrameModel/decoder_fpn/upblock/conv_bn__act_2/conv/Conv2D_bn_offset"], "device": "/device:CPU:0", "attr": {"data_format": {"s": "TkhXQw=="}, "strides": {"list": {"i": ["1", "1", "1", "1"]}}, "fused_ops": {"list": {"s": ["Qmlhc0FkZA==", "UmVsdQ=="]}}, "T": {"type": "DT_FLOAT"}, "dilations": {"list": {"i": ["1", "1", "1", "1"]}}, "padding": {"s": "U0FNRQ=="}, "use_cudnn_on_gpu": {"b": true}, "explicit_paddings": {"list": {}}, "num_args": {"i": "1"}, "epsilon": {"f": 0.0}}}, {"name": "StatefulPartitionedCall/WireFrameModel/decoder_fpn/upblock/add", "op": "AddV2", "input": ["StatefulPartitionedCall/WireFrameModel/decoder_fpn/upblock/conv_bn__act_2/re_lu_2/Relu", "StatefulPartitionedCall/WireFrameModel/decoder_fpn/upblock/concat"], "attr": {"T": {"type": "DT_FLOAT"}}}, {"name": "StatefulPartitionedCall/WireFrameModel/decoder_fpn/upblock/re_lu_3/Relu", "op": "_FusedConv2D", "input": ["StatefulPartitionedCall/WireFrameModel/decoder_fpn/upblock/add", "StatefulPartitionedCall/WireFrameModel/decoder_fpn/upblock/conv_bn__act_3/conv/Conv2D_weights", "StatefulPartitionedCall/WireFrameModel/decoder_fpn/upblock/conv_bn__act_3/conv/Conv2D_bn_offset"], "device": "/device:CPU:0", "attr": {"use_cudnn_on_gpu": {"b": true}, "dilations": {"list": {"i": ["1", "1", "1", "1"]}}, "strides": {"list": {"i": ["1", "1", "1", "1"]}}, "T": {"type": "DT_FLOAT"}, "epsilon": {"f": 0.0}, "data_format": {"s": "TkhXQw=="}, "num_args": {"i": "1"}, "fused_ops": {"list": {"s": ["Qmlhc0FkZA==", "UmVsdQ=="]}}, "padding": {"s": "U0FNRQ=="}, "explicit_paddings": {"list": {}}}}, {"name": "StatefulPartitionedCall/WireFrameModel/decoder_fpn/upblock_1/resize/ResizeBilinear", "op": "ResizeBilinear", "input": ["StatefulPartitionedCall/WireFrameModel/decoder_fpn/upblock/re_lu_3/Relu", "StatefulPartitionedCall/WireFrameModel/decoder_fpn/upblock_1/resize/size"], "attr": {"T": {"type": "DT_FLOAT"}, "half_pixel_centers": {"b": true}, "align_corners": {"b": false}}}, {"name": "StatefulPartitionedCall/WireFrameModel/decoder_fpn/upblock_1/conv_bn__act_5/re_lu_5/Relu", "op": "_FusedConv2D", "input": ["StatefulPartitionedCall/WireFrameModel/decoder_fpn/upblock_1/resize/ResizeBilinear", "StatefulPartitionedCall/WireFrameModel/decoder_fpn/upblock_1/conv_bn__act_5/conv/Conv2D_weights", "StatefulPartitionedCall/WireFrameModel/decoder_fpn/upblock_1/conv_bn__act_5/conv/Conv2D_bn_offset"], "device": "/device:CPU:0", "attr": {"use_cudnn_on_gpu": {"b": true}, "data_format": {"s": "TkhXQw=="}, "explicit_paddings": {"list": {}}, "padding": {"s": "U0FNRQ=="}, "T": {"type": "DT_FLOAT"}, "dilations": {"list": {"i": ["1", "1", "1", "1"]}}, "strides": {"list": {"i": ["1", "1", "1", "1"]}}, "num_args": {"i": "1"}, "fused_ops": {"list": {"s": ["Qmlhc0FkZA==", "UmVsdQ=="]}}, "epsilon": {"f": 0.0}}}, {"name": "StatefulPartitionedCall/WireFrameModel/decoder_fpn/upblock_1/concat", "op": "ConcatV2", "input": ["StatefulPartitionedCall/WireFrameModel/decoder_fpn/upblock_1/conv_bn__act_4/re_lu_4/Relu", "StatefulPartitionedCall/WireFrameModel/decoder_fpn/upblock_1/conv_bn__act_5/re_lu_5/Relu", "StatefulPartitionedCall/WireFrameModel/decoder_fpn/upblock_1/concat/axis"], "attr": {"T": {"type": "DT_FLOAT"}, "N": {"i": "2"}, "Tidx": {"type": "DT_INT32"}}}, {"name": "StatefulPartitionedCall/WireFrameModel/decoder_fpn/upblock_1/conv_bn__act_6/re_lu_6/Relu", "op": "_FusedConv2D", "input": ["StatefulPartitionedCall/WireFrameModel/decoder_fpn/upblock_1/concat", "StatefulPartitionedCall/WireFrameModel/decoder_fpn/upblock_1/conv_bn__act_6/conv/Conv2D_weights", "StatefulPartitionedCall/WireFrameModel/decoder_fpn/upblock_1/conv_bn__act_6/conv/Conv2D_bn_offset"], "device": "/device:CPU:0", "attr": {"dilations": {"list": {"i": ["1", "1", "1", "1"]}}, "epsilon": {"f": 0.0}, "data_format": {"s": "TkhXQw=="}, "use_cudnn_on_gpu": {"b": true}, "padding": {"s": "U0FNRQ=="}, "T": {"type": "DT_FLOAT"}, "strides": {"list": {"i": ["1", "1", "1", "1"]}}, "fused_ops": {"list": {"s": ["Qmlhc0FkZA==", "UmVsdQ=="]}}, "num_args": {"i": "1"}, "explicit_paddings": {"list": {}}}}, {"name": "StatefulPartitionedCall/WireFrameModel/decoder_fpn/upblock_1/add", "op": "AddV2", "input": ["StatefulPartitionedCall/WireFrameModel/decoder_fpn/upblock_1/conv_bn__act_6/re_lu_6/Relu", "StatefulPartitionedCall/WireFrameModel/decoder_fpn/upblock_1/concat"], "attr": {"T": {"type": "DT_FLOAT"}}}, {"name": "StatefulPartitionedCall/WireFrameModel/decoder_fpn/upblock_1/re_lu_7/Relu", "op": "_FusedConv2D", "input": ["StatefulPartitionedCall/WireFrameModel/decoder_fpn/upblock_1/add", "StatefulPartitionedCall/WireFrameModel/decoder_fpn/upblock_1/conv_bn__act_7/conv/Conv2D_weights", "StatefulPartitionedCall/WireFrameModel/decoder_fpn/upblock_1/conv_bn__act_7/conv/Conv2D_bn_offset"], "device": "/device:CPU:0", "attr": {"num_args": {"i": "1"}, "padding": {"s": "U0FNRQ=="}, "dilations": {"list": {"i": ["1", "1", "1", "1"]}}, "T": {"type": "DT_FLOAT"}, "data_format": {"s": "TkhXQw=="}, "explicit_paddings": {"list": {}}, "epsilon": {"f": 0.0}, "fused_ops": {"list": {"s": ["Qmlhc0FkZA==", "UmVsdQ=="]}}, "strides": {"list": {"i": ["1", "1", "1", "1"]}}, "use_cudnn_on_gpu": {"b": true}}}, {"name": "StatefulPartitionedCall/WireFrameModel/Decoder/conv_bn__act_8/conv/Conv2D/SpaceToBatchND", "op": "SpaceToBatchND", "input": ["StatefulPartitionedCall/WireFrameModel/decoder_fpn/upblock_1/re_lu_7/Relu", "StatefulPartitionedCall/WireFrameModel/Decoder/conv_bn__act_8/conv/Conv2D/SpaceToBatchND/block_shape", "StatefulPartitionedCall/WireFrameModel/Decoder/conv_bn__act_8/conv/Conv2D/SpaceToBatchND/paddings"], "attr": {"Tpaddings": {"type": "DT_INT32"}, "Tblock_shape": {"type": "DT_INT32"}, "T": {"type": "DT_FLOAT"}}}, {"name": "StatefulPartitionedCall/WireFrameModel/Decoder/conv_bn__act_8/conv/Conv2D", "op": "Conv2D", "input": ["StatefulPartitionedCall/WireFrameModel/Decoder/conv_bn__act_8/conv/Conv2D/SpaceToBatchND", "unknown_189"], "device": "/device:CPU:0", "attr": {"dilations": {"list": {"i": ["1", "1", "1", "1"]}}, "strides": {"list": {"i": ["1", "1", "1", "1"]}}, "T": {"type": "DT_FLOAT"}, "padding": {"s": "VkFMSUQ="}, "data_format": {"s": "TkhXQw=="}, "explicit_paddings": {"list": {}}, "use_cudnn_on_gpu": {"b": true}}}, {"name": "StatefulPartitionedCall/WireFrameModel/Decoder/conv_bn__act_8/conv/Conv2D/BatchToSpaceND", "op": "BatchToSpaceND", "input": ["StatefulPartitionedCall/WireFrameModel/Decoder/conv_bn__act_8/conv/Conv2D", "StatefulPartitionedCall/WireFrameModel/Decoder/conv_bn__act_8/conv/Conv2D/BatchToSpaceND/block_shape", "StatefulPartitionedCall/WireFrameModel/Decoder/conv_bn__act_8/conv/Conv2D/BatchToSpaceND/crops"], "attr": {"T": {"type": "DT_FLOAT"}, "Tblock_shape": {"type": "DT_INT32"}, "Tcrops": {"type": "DT_INT32"}}}, {"name": "StatefulPartitionedCall/WireFrameModel/Decoder/conv_bn__act_8/bn/FusedBatchNormV3/Mul", "op": "Mul", "input": ["StatefulPartitionedCall/WireFrameModel/Decoder/conv_bn__act_8/conv/Conv2D/BatchToSpaceND", "StatefulPartitionedCall/WireFrameModel/Decoder/conv_bn__act_8/bn/FusedBatchNormV3/Scaled"], "attr": {"T": {"type": "DT_FLOAT"}}}, {"name": "StatefulPartitionedCall/WireFrameModel/Decoder/conv_bn__act_8/bn/FusedBatchNormV3", "op": "Add", "input": ["StatefulPartitionedCall/WireFrameModel/Decoder/conv_bn__act_8/bn/FusedBatchNormV3/Mul", "StatefulPartitionedCall/WireFrameModel/Decoder/conv_bn__act_8/bn/FusedBatchNormV3/Offset"], "attr": {"T": {"type": "DT_FLOAT"}}}, {"name": "StatefulPartitionedCall/WireFrameModel/Decoder/conv_bn__act_8/re_lu_8/Relu", "op": "Relu", "input": ["StatefulPartitionedCall/WireFrameModel/Decoder/conv_bn__act_8/bn/FusedBatchNormV3"], "attr": {"T": {"type": "DT_FLOAT"}}}, {"name": "StatefulPartitionedCall/WireFrameModel/Decoder/conv_bn__act_9/re_lu_9/Relu", "op": "_FusedConv2D", "input": ["StatefulPartitionedCall/WireFrameModel/Decoder/conv_bn__act_8/re_lu_8/Relu", "StatefulPartitionedCall/WireFrameModel/Decoder/conv_bn__act_9/conv/Conv2D_weights", "StatefulPartitionedCall/WireFrameModel/Decoder/conv_bn__act_9/conv/Conv2D_bn_offset"], "device": "/device:CPU:0", "attr": {"fused_ops": {"list": {"s": ["Qmlhc0FkZA==", "UmVsdQ=="]}}, "padding": {"s": "U0FNRQ=="}, "num_args": {"i": "1"}, "strides": {"list": {"i": ["1", "1", "1", "1"]}}, "use_cudnn_on_gpu": {"b": true}, "data_format": {"s": "TkhXQw=="}, "T": {"type": "DT_FLOAT"}, "explicit_paddings": {"list": {}}, "epsilon": {"f": 0.0}, "dilations": {"list": {"i": ["1", "1", "1", "1"]}}}}, {"name": "StatefulPartitionedCall/WireFrameModel/Decoder/conv2d/BiasAdd", "op": "_FusedConv2D", "input": ["StatefulPartitionedCall/WireFrameModel/Decoder/conv_bn__act_9/re_lu_9/Relu", "unknown_199", "unknown_200"], "device": "/device:CPU:0", "attr": {"num_args": {"i": "1"}, "data_format": {"s": "TkhXQw=="}, "use_cudnn_on_gpu": {"b": true}, "explicit_paddings": {"list": {}}, "T": {"type": "DT_FLOAT"}, "strides": {"list": {"i": ["1", "1", "1", "1"]}}, "epsilon": {"f": 0.0}, "dilations": {"list": {"i": ["1", "1", "1", "1"]}}, "padding": {"s": "U0FNRQ=="}, "fused_ops": {"list": {"s": ["Qmlhc0FkZA=="]}}}}, {"name": "StatefulPartitionedCall/WireFrameModel/Decoder/resize/ResizeBilinear", "op": "ResizeBilinear", "input": ["StatefulPartitionedCall/WireFrameModel/Decoder/conv2d/BiasAdd", "StatefulPartitionedCall/WireFrameModel/Decoder/resize/size"], "attr": {"align_corners": {"b": false}, "half_pixel_centers": {"b": true}, "T": {"type": "DT_FLOAT"}}}, {"name": "StatefulPartitionedCall/WireFrameModel/Decoder/strided_slice_6", "op": "StridedSlice", "input": ["StatefulPartitionedCall/WireFrameModel/Decoder/resize/ResizeBilinear", "StatefulPartitionedCall/WireFrameModel/Decoder/strided_slice_6/stack", "StatefulPartitionedCall/WireFrameModel/Decoder/strided_slice_6/stack_1", "StatefulPartitionedCall/WireFrameModel/Decoder/strided_slice_6/stack_2"], "attr": {"end_mask": {"i": "7"}, "T": {"type": "DT_FLOAT"}, "ellipsis_mask": {"i": "0"}, "new_axis_mask": {"i": "0"}, "begin_mask": {"i": "7"}, "shrink_axis_mask": {"i": "0"}, "Index": {"type": "DT_INT32"}}}, {"name": "StatefulPartitionedCall/WireFrameModel/Decoder/strided_slice_7", "op": "StridedSlice", "input": ["StatefulPartitionedCall/WireFrameModel/Decoder/resize/ResizeBilinear", "StatefulPartitionedCall/WireFrameModel/Decoder/strided_slice_7/stack", "StatefulPartitionedCall/WireFrameModel/Decoder/strided_slice_7/stack_1", "StatefulPartitionedCall/WireFrameModel/Decoder/strided_slice_7/stack_2"], "attr": {"Index": {"type": "DT_INT32"}, "T": {"type": "DT_FLOAT"}, "shrink_axis_mask": {"i": "0"}, "begin_mask": {"i": "7"}, "ellipsis_mask": {"i": "0"}, "end_mask": {"i": "7"}, "new_axis_mask": {"i": "0"}}}, {"name": "StatefulPartitionedCall/WireFrameModel/Decoder/strided_slice_8", "op": "StridedSlice", "input": ["StatefulPartitionedCall/WireFrameModel/Decoder/resize/ResizeBilinear", "StatefulPartitionedCall/WireFrameModel/Decoder/strided_slice_8/stack", "StatefulPartitionedCall/WireFrameModel/Decoder/strided_slice_8/stack_1", "StatefulPartitionedCall/WireFrameModel/Decoder/strided_slice_8/stack_2"], "attr": {"begin_mask": {"i": "7"}, "ellipsis_mask": {"i": "0"}, "new_axis_mask": {"i": "0"}, "Index": {"type": "DT_INT32"}, "T": {"type": "DT_FLOAT"}, "end_mask": {"i": "7"}, "shrink_axis_mask": {"i": "0"}}}, {"name": "StatefulPartitionedCall/WireFrameModel/Decoder/strided_slice_9", "op": "StridedSlice", "input": ["StatefulPartitionedCall/WireFrameModel/Decoder/resize/ResizeBilinear", "StatefulPartitionedCall/WireFrameModel/Decoder/strided_slice_9/stack", "StatefulPartitionedCall/WireFrameModel/Decoder/strided_slice_9/stack_1", "StatefulPartitionedCall/WireFrameModel/Decoder/strided_slice_9/stack_2"], "attr": {"begin_mask": {"i": "7"}, "Index": {"type": "DT_INT32"}, "ellipsis_mask": {"i": "0"}, "shrink_axis_mask": {"i": "0"}, "T": {"type": "DT_FLOAT"}, "end_mask": {"i": "7"}, "new_axis_mask": {"i": "0"}}}, {"name": "StatefulPartitionedCall/WireFrameModel/Decoder/strided_slice", "op": "StridedSlice", "input": ["StatefulPartitionedCall/WireFrameModel/Decoder/resize/ResizeBilinear", "StatefulPartitionedCall/WireFrameModel/Decoder/strided_slice/stack", "StatefulPartitionedCall/WireFrameModel/Decoder/strided_slice/stack_1", "StatefulPartitionedCall/WireFrameModel/Decoder/strided_slice/stack_2"], "attr": {"new_axis_mask": {"i": "0"}, "ellipsis_mask": {"i": "0"}, "Index": {"type": "DT_INT32"}, "shrink_axis_mask": {"i": "0"}, "end_mask": {"i": "7"}, "T": {"type": "DT_FLOAT"}, "begin_mask": {"i": "7"}}}, {"name": "StatefulPartitionedCall/WireFrameModel/Decoder/strided_slice_3", "op": "StridedSlice", "input": ["StatefulPartitionedCall/WireFrameModel/Decoder/resize/ResizeBilinear", "StatefulPartitionedCall/WireFrameModel/Decoder/strided_slice_3/stack", "StatefulPartitionedCall/WireFrameModel/Decoder/strided_slice_3/stack_1", "StatefulPartitionedCall/WireFrameModel/Decoder/strided_slice_3/stack_2"], "attr": {"Index": {"type": "DT_INT32"}, "T": {"type": "DT_FLOAT"}, "begin_mask": {"i": "7"}, "ellipsis_mask": {"i": "0"}, "shrink_axis_mask": {"i": "0"}, "new_axis_mask": {"i": "0"}, "end_mask": {"i": "7"}}}, {"name": "StatefulPartitionedCall/WireFrameModel/Decoder/strided_slice_1", "op": "StridedSlice", "input": ["StatefulPartitionedCall/WireFrameModel/Decoder/resize/ResizeBilinear", "StatefulPartitionedCall/WireFrameModel/Decoder/strided_slice_1/stack", "StatefulPartitionedCall/WireFrameModel/Decoder/strided_slice_1/stack_1", "StatefulPartitionedCall/WireFrameModel/Decoder/strided_slice_1/stack_2"], "attr": {"new_axis_mask": {"i": "0"}, "begin_mask": {"i": "7"}, "ellipsis_mask": {"i": "0"}, "end_mask": {"i": "7"}, "T": {"type": "DT_FLOAT"}, "shrink_axis_mask": {"i": "0"}, "Index": {"type": "DT_INT32"}}}, {"name": "StatefulPartitionedCall/WireFrameModel/Decoder/strided_slice_2", "op": "StridedSlice", "input": ["StatefulPartitionedCall/WireFrameModel/Decoder/resize/ResizeBilinear", "StatefulPartitionedCall/WireFrameModel/Decoder/strided_slice_2/stack", "StatefulPartitionedCall/WireFrameModel/Decoder/strided_slice_2/stack_1", "StatefulPartitionedCall/WireFrameModel/Decoder/strided_slice_2/stack_2"], "attr": {"ellipsis_mask": {"i": "0"}, "new_axis_mask": {"i": "0"}, "T": {"type": "DT_FLOAT"}, "begin_mask": {"i": "7"}, "shrink_axis_mask": {"i": "0"}, "end_mask": {"i": "7"}, "Index": {"type": "DT_INT32"}}}, {"name": "StatefulPartitionedCall/WireFrameModel/Decoder/strided_slice_5", "op": "StridedSlice", "input": ["StatefulPartitionedCall/WireFrameModel/Decoder/resize/ResizeBilinear", "StatefulPartitionedCall/WireFrameModel/Decoder/strided_slice_5/stack", "StatefulPartitionedCall/WireFrameModel/Decoder/strided_slice_5/stack_1", "StatefulPartitionedCall/WireFrameModel/Decoder/strided_slice_5/stack_2"], "attr": {"new_axis_mask": {"i": "0"}, "end_mask": {"i": "7"}, "ellipsis_mask": {"i": "0"}, "shrink_axis_mask": {"i": "0"}, "T": {"type": "DT_FLOAT"}, "Index": {"type": "DT_INT32"}, "begin_mask": {"i": "7"}}}, {"name": "StatefulPartitionedCall/WireFrameModel/Decoder/strided_slice_4", "op": "StridedSlice", "input": ["StatefulPartitionedCall/WireFrameModel/Decoder/resize/ResizeBilinear", "StatefulPartitionedCall/WireFrameModel/Decoder/strided_slice_4/stack", "StatefulPartitionedCall/WireFrameModel/Decoder/strided_slice_4/stack_1", "StatefulPartitionedCall/WireFrameModel/Decoder/strided_slice_4/stack_2"], "attr": {"Index": {"type": "DT_INT32"}, "new_axis_mask": {"i": "0"}, "ellipsis_mask": {"i": "0"}, "shrink_axis_mask": {"i": "0"}, "begin_mask": {"i": "7"}, "T": {"type": "DT_FLOAT"}, "end_mask": {"i": "7"}}}, {"name": "StatefulPartitionedCall/WireFrameModel/Decoder/Sigmoid", "op": "Sigmoid", "input": ["StatefulPartitionedCall/WireFrameModel/Decoder/strided_slice_6"], "attr": {"T": {"type": "DT_FLOAT"}}}, {"name": "StatefulPartitionedCall/WireFrameModel/Decoder/Sigmoid_1", "op": "Sigmoid", "input": ["StatefulPartitionedCall/WireFrameModel/Decoder/strided_slice_7"], "attr": {"T": {"type": "DT_FLOAT"}}}, {"name": "StatefulPartitionedCall/WireFrameModel/Decoder/Sigmoid_2", "op": "Sigmoid", "input": ["StatefulPartitionedCall/WireFrameModel/Decoder/strided_slice_8"], "attr": {"T": {"type": "DT_FLOAT"}}}, {"name": "StatefulPartitionedCall/WireFrameModel/Decoder/Sigmoid_3", "op": "Sigmoid", "input": ["StatefulPartitionedCall/WireFrameModel/Decoder/strided_slice_9"], "attr": {"T": {"type": "DT_FLOAT"}}}, {"name": "Identity", "op": "Identity", "input": ["StatefulPartitionedCall/WireFrameModel/Decoder/strided_slice"], "attr": {"T": {"type": "DT_FLOAT"}}}, {"name": "StatefulPartitionedCall/WireFrameModel/Decoder/Sigmoid_5", "op": "Sigmoid", "input": ["StatefulPartitionedCall/WireFrameModel/Decoder/strided_slice"], "attr": {"T": {"type": "DT_FLOAT"}}}, {"name": "Identity_1", "op": "Identity", "input": ["StatefulPartitionedCall/WireFrameModel/Decoder/strided_slice_3"], "attr": {"T": {"type": "DT_FLOAT"}}}, {"name": "Identity_11", "op": "Identity", "input": ["StatefulPartitionedCall/WireFrameModel/Decoder/strided_slice_3"], "attr": {"T": {"type": "DT_FLOAT"}}}, {"name": "Identity_12", "op": "Identity", "input": ["StatefulPartitionedCall/WireFrameModel/Decoder/strided_slice_1"], "attr": {"T": {"type": "DT_FLOAT"}}}, {"name": "Identity_13", "op": "Identity", "input": ["StatefulPartitionedCall/WireFrameModel/Decoder/strided_slice_2"], "attr": {"T": {"type": "DT_FLOAT"}}}, {"name": "StatefulPartitionedCall/WireFrameModel/Decoder/Sigmoid_6", "op": "Sigmoid", "input": ["StatefulPartitionedCall/WireFrameModel/Decoder/strided_slice_2"], "attr": {"T": {"type": "DT_FLOAT"}}}, {"name": "Identity_2", "op": "Identity", "input": ["StatefulPartitionedCall/WireFrameModel/Decoder/strided_slice_5"], "attr": {"T": {"type": "DT_FLOAT"}}}, {"name": "StatefulPartitionedCall/WireFrameModel/Decoder/Sigmoid_4", "op": "Sigmoid", "input": ["StatefulPartitionedCall/WireFrameModel/Decoder/strided_slice_4"], "attr": {"T": {"type": "DT_FLOAT"}}}, {"name": "Identity_16", "op": "Identity", "input": ["StatefulPartitionedCall/WireFrameModel/Decoder/strided_slice_4"], "attr": {"T": {"type": "DT_FLOAT"}}}, {"name": "Identity_5", "op": "Identity", "input": ["StatefulPartitionedCall/WireFrameModel/Decoder/Sigmoid"], "attr": {"T": {"type": "DT_FLOAT"}}}, {"name": "Identity_6", "op": "Identity", "input": ["StatefulPartitionedCall/WireFrameModel/Decoder/Sigmoid_1"], "attr": {"T": {"type": "DT_FLOAT"}}}, {"name": "Identity_7", "op": "Identity", "input": ["StatefulPartitionedCall/WireFrameModel/Decoder/Sigmoid_2"], "attr": {"T": {"type": "DT_FLOAT"}}}, {"name": "Identity_8", "op": "Identity", "input": ["StatefulPartitionedCall/WireFrameModel/Decoder/Sigmoid_3"], "attr": {"T": {"type": "DT_FLOAT"}}}, {"name": "StatefulPartitionedCall/WireFrameModel/Decoder/max_pooling2d_1/MaxPool", "op": "MaxPool", "input": ["StatefulPartitionedCall/WireFrameModel/Decoder/Sigmoid_5"], "attr": {"data_format": {"s": "TkhXQw=="}, "T": {"type": "DT_FLOAT"}, "strides": {"list": {"i": ["1", "1", "1", "1"]}}, "explicit_paddings": {"list": {}}, "padding": {"s": "U0FNRQ=="}, "ksize": {"list": {"i": ["1", "3", "3", "1"]}}}}, {"name": "StatefulPartitionedCall/WireFrameModel/Decoder/max_pooling2d_2/MaxPool", "op": "MaxPool", "input": ["StatefulPartitionedCall/WireFrameModel/Decoder/Sigmoid_6"], "attr": {"padding": {"s": "U0FNRQ=="}, "ksize": {"list": {"i": ["1", "3", "3", "1"]}}, "T": {"type": "DT_FLOAT"}, "strides": {"list": {"i": ["1", "1", "1", "1"]}}, "data_format": {"s": "TkhXQw=="}, "explicit_paddings": {"list": {}}}}, {"name": "StatefulPartitionedCall/WireFrameModel/Decoder/max_pooling2d/MaxPool", "op": "MaxPool", "input": ["StatefulPartitionedCall/WireFrameModel/Decoder/Sigmoid_4"], "attr": {"explicit_paddings": {"list": {}}, "ksize": {"list": {"i": ["1", "3", "3", "1"]}}, "padding": {"s": "U0FNRQ=="}, "T": {"type": "DT_FLOAT"}, "strides": {"list": {"i": ["1", "1", "1", "1"]}}, "data_format": {"s": "TkhXQw=="}}}, {"name": "StatefulPartitionedCall/WireFrameModel/Decoder/Equal_1", "op": "Equal", "input": ["StatefulPartitionedCall/WireFrameModel/Decoder/Sigmoid_5", "StatefulPartitionedCall/WireFrameModel/Decoder/max_pooling2d_1/MaxPool"], "attr": {"T": {"type": "DT_FLOAT"}, "incompatible_shape_error": {"b": true}}}, {"name": "StatefulPartitionedCall/WireFrameModel/Decoder/Equal_2", "op": "Equal", "input": ["StatefulPartitionedCall/WireFrameModel/Decoder/Sigmoid_6", "StatefulPartitionedCall/WireFrameModel/Decoder/max_pooling2d_2/MaxPool"], "attr": {"T": {"type": "DT_FLOAT"}, "incompatible_shape_error": {"b": true}}}, {"name": "StatefulPartitionedCall/WireFrameModel/Decoder/Equal", "op": "Equal", "input": ["StatefulPartitionedCall/WireFrameModel/Decoder/Sigmoid_4", "StatefulPartitionedCall/WireFrameModel/Decoder/max_pooling2d/MaxPool"], "attr": {"incompatible_shape_error": {"b": true}, "T": {"type": "DT_FLOAT"}}}, {"name": "StatefulPartitionedCall/WireFrameModel/Decoder/Cast_1", "op": "Cast", "input": ["StatefulPartitionedCall/WireFrameModel/Decoder/Equal_1"], "attr": {"Truncate": {"b": false}, "DstT": {"type": "DT_FLOAT"}, "SrcT": {"type": "DT_BOOL"}}}, {"name": "StatefulPartitionedCall/WireFrameModel/Decoder/Cast_2", "op": "Cast", "input": ["StatefulPartitionedCall/WireFrameModel/Decoder/Equal_2"], "attr": {"Truncate": {"b": false}, "SrcT": {"type": "DT_BOOL"}, "DstT": {"type": "DT_FLOAT"}}}, {"name": "StatefulPartitionedCall/WireFrameModel/Decoder/Cast", "op": "Cast", "input": ["StatefulPartitionedCall/WireFrameModel/Decoder/Equal"], "attr": {"DstT": {"type": "DT_FLOAT"}, "SrcT": {"type": "DT_BOOL"}, "Truncate": {"b": false}}}, {"name": "StatefulPartitionedCall/WireFrameModel/Decoder/mul_1", "op": "Mul", "input": ["StatefulPartitionedCall/WireFrameModel/Decoder/Sigmoid_5", "StatefulPartitionedCall/WireFrameModel/Decoder/Cast_1"], "attr": {"T": {"type": "DT_FLOAT"}}}, {"name": "StatefulPartitionedCall/WireFrameModel/Decoder/mul_2", "op": "Mul", "input": ["StatefulPartitionedCall/WireFrameModel/Decoder/Sigmoid_6", "StatefulPartitionedCall/WireFrameModel/Decoder/Cast_2"], "attr": {"T": {"type": "DT_FLOAT"}}}, {"name": "StatefulPartitionedCall/WireFrameModel/Decoder/mul", "op": "Mul", "input": ["StatefulPartitionedCall/WireFrameModel/Decoder/Sigmoid_4", "StatefulPartitionedCall/WireFrameModel/Decoder/Cast"], "attr": {"T": {"type": "DT_FLOAT"}}}, {"name": "StatefulPartitionedCall/WireFrameModel/Decoder/Reshape_1", "op": "Reshape", "input": ["StatefulPartitionedCall/WireFrameModel/Decoder/mul_1", "StatefulPartitionedCall/WireFrameModel/Decoder/Reshape_1/shape"], "attr": {"T": {"type": "DT_FLOAT"}, "Tshape": {"type": "DT_INT32"}}}, {"name": "StatefulPartitionedCall/WireFrameModel/Decoder/Reshape_2", "op": "Reshape", "input": ["StatefulPartitionedCall/WireFrameModel/Decoder/mul_2", "StatefulPartitionedCall/WireFrameModel/Decoder/Reshape_2/shape"], "attr": {"T": {"type": "DT_FLOAT"}, "Tshape": {"type": "DT_INT32"}}}, {"name": "StatefulPartitionedCall/WireFrameModel/Decoder/Reshape", "op": "Reshape", "input": ["StatefulPartitionedCall/WireFrameModel/Decoder/mul", "StatefulPartitionedCall/WireFrameModel/Decoder/Reshape/shape"], "attr": {"Tshape": {"type": "DT_INT32"}, "T": {"type": "DT_FLOAT"}}}, {"name": "StatefulPartitionedCall/WireFrameModel/Decoder/TopKV2_1", "op": "TopKV2", "input": ["StatefulPartitionedCall/WireFrameModel/Decoder/Reshape_1", "StatefulPartitionedCall/WireFrameModel/Decoder/TopKV2_1/k"], "attr": {"T": {"type": "DT_FLOAT"}, "sorted": {"b": true}}}, {"name": "StatefulPartitionedCall/WireFrameModel/Decoder/TopKV2_2", "op": "TopKV2", "input": ["StatefulPartitionedCall/WireFrameModel/Decoder/Reshape_2", "StatefulPartitionedCall/WireFrameModel/Decoder/TopKV2_2/k"], "attr": {"sorted": {"b": true}, "T": {"type": "DT_FLOAT"}}}, {"name": "StatefulPartitionedCall/WireFrameModel/Decoder/TopKV2", "op": "TopKV2", "input": ["StatefulPartitionedCall/WireFrameModel/Decoder/Reshape", "StatefulPartitionedCall/WireFrameModel/Decoder/TopKV2/k"], "attr": {"sorted": {"b": true}, "T": {"type": "DT_FLOAT"}}}, {"name": "Identity_10", "op": "Identity", "input": ["StatefulPartitionedCall/WireFrameModel/Decoder/TopKV2_1"], "attr": {"T": {"type": "DT_FLOAT"}}}, {"name": "StatefulPartitionedCall/WireFrameModel/Decoder/floordiv_1", "op": "FloorDiv", "input": ["StatefulPartitionedCall/WireFrameModel/Decoder/TopKV2_1:1", "StatefulPartitionedCall/WireFrameModel/Decoder/floordiv_1/y"], "attr": {"T": {"type": "DT_INT32"}}}, {"name": "StatefulPartitionedCall/WireFrameModel/Decoder/mod_1", "op": "FloorMod", "input": ["StatefulPartitionedCall/WireFrameModel/Decoder/TopKV2_1:1", "StatefulPartitionedCall/WireFrameModel/Decoder/mod_1/y"], "attr": {"T": {"type": "DT_INT32"}}}, {"name": "Identity_15", "op": "Identity", "input": ["StatefulPartitionedCall/WireFrameModel/Decoder/TopKV2_2"], "attr": {"T": {"type": "DT_FLOAT"}}}, {"name": "StatefulPartitionedCall/WireFrameModel/Decoder/floordiv_2", "op": "FloorDiv", "input": ["StatefulPartitionedCall/WireFrameModel/Decoder/TopKV2_2:1", "StatefulPartitionedCall/WireFrameModel/Decoder/floordiv_2/y"], "attr": {"T": {"type": "DT_INT32"}}}, {"name": "StatefulPartitionedCall/WireFrameModel/Decoder/mod_2", "op": "FloorMod", "input": ["StatefulPartitionedCall/WireFrameModel/Decoder/TopKV2_2:1", "StatefulPartitionedCall/WireFrameModel/Decoder/mod_2/y"], "attr": {"T": {"type": "DT_INT32"}}}, {"name": "Identity_4", "op": "Identity", "input": ["StatefulPartitionedCall/WireFrameModel/Decoder/TopKV2"], "attr": {"T": {"type": "DT_FLOAT"}}}, {"name": "StatefulPartitionedCall/WireFrameModel/Decoder/floordiv", "op": "FloorDiv", "input": ["StatefulPartitionedCall/WireFrameModel/Decoder/TopKV2:1", "StatefulPartitionedCall/WireFrameModel/Decoder/floordiv/y"], "attr": {"T": {"type": "DT_INT32"}}}, {"name": "StatefulPartitionedCall/WireFrameModel/Decoder/mod", "op": "FloorMod", "input": ["StatefulPartitionedCall/WireFrameModel/Decoder/TopKV2:1", "StatefulPartitionedCall/WireFrameModel/Decoder/mod/y"], "attr": {"T": {"type": "DT_INT32"}}}, {"name": "StatefulPartitionedCall/WireFrameModel/Decoder/ExpandDims_2", "op": "ExpandDims", "input": ["StatefulPartitionedCall/WireFrameModel/Decoder/floordiv_1", "StatefulPartitionedCall/WireFrameModel/Decoder/ExpandDims_2/dim"], "attr": {"T": {"type": "DT_INT32"}, "Tdim": {"type": "DT_INT32"}}}, {"name": "StatefulPartitionedCall/WireFrameModel/Decoder/ExpandDims_3", "op": "ExpandDims", "input": ["StatefulPartitionedCall/WireFrameModel/Decoder/mod_1", "StatefulPartitionedCall/WireFrameModel/Decoder/ExpandDims_3/dim"], "attr": {"T": {"type": "DT_INT32"}, "Tdim": {"type": "DT_INT32"}}}, {"name": "StatefulPartitionedCall/WireFrameModel/Decoder/ExpandDims_4", "op": "ExpandDims", "input": ["StatefulPartitionedCall/WireFrameModel/Decoder/floordiv_2", "StatefulPartitionedCall/WireFrameModel/Decoder/ExpandDims_4/dim"], "attr": {"T": {"type": "DT_INT32"}, "Tdim": {"type": "DT_INT32"}}}, {"name": "StatefulPartitionedCall/WireFrameModel/Decoder/ExpandDims_5", "op": "ExpandDims", "input": ["StatefulPartitionedCall/WireFrameModel/Decoder/mod_2", "StatefulPartitionedCall/WireFrameModel/Decoder/ExpandDims_5/dim"], "attr": {"Tdim": {"type": "DT_INT32"}, "T": {"type": "DT_INT32"}}}, {"name": "StatefulPartitionedCall/WireFrameModel/Decoder/ExpandDims", "op": "ExpandDims", "input": ["StatefulPartitionedCall/WireFrameModel/Decoder/floordiv", "StatefulPartitionedCall/WireFrameModel/Decoder/ExpandDims/dim"], "attr": {"T": {"type": "DT_INT32"}, "Tdim": {"type": "DT_INT32"}}}, {"name": "StatefulPartitionedCall/WireFrameModel/Decoder/ExpandDims_1", "op": "ExpandDims", "input": ["StatefulPartitionedCall/WireFrameModel/Decoder/mod", "StatefulPartitionedCall/WireFrameModel/Decoder/ExpandDims_1/dim"], "attr": {"Tdim": {"type": "DT_INT32"}, "T": {"type": "DT_INT32"}}}, {"name": "StatefulPartitionedCall/WireFrameModel/Decoder/concat_1", "op": "ConcatV2", "input": ["StatefulPartitionedCall/WireFrameModel/Decoder/ExpandDims_2", "StatefulPartitionedCall/WireFrameModel/Decoder/ExpandDims_3", "StatefulPartitionedCall/WireFrameModel/Decoder/concat_1/axis"], "attr": {"Tidx": {"type": "DT_INT32"}, "T": {"type": "DT_INT32"}, "N": {"i": "2"}}}, {"name": "StatefulPartitionedCall/WireFrameModel/Decoder/concat_2", "op": "ConcatV2", "input": ["StatefulPartitionedCall/WireFrameModel/Decoder/ExpandDims_4", "StatefulPartitionedCall/WireFrameModel/Decoder/ExpandDims_5", "StatefulPartitionedCall/WireFrameModel/Decoder/concat_2/axis"], "attr": {"T": {"type": "DT_INT32"}, "Tidx": {"type": "DT_INT32"}, "N": {"i": "2"}}}, {"name": "StatefulPartitionedCall/WireFrameModel/Decoder/concat", "op": "ConcatV2", "input": ["StatefulPartitionedCall/WireFrameModel/Decoder/ExpandDims", "StatefulPartitionedCall/WireFrameModel/Decoder/ExpandDims_1", "StatefulPartitionedCall/WireFrameModel/Decoder/concat/axis"], "attr": {"N": {"i": "2"}, "T": {"type": "DT_INT32"}, "Tidx": {"type": "DT_INT32"}}}, {"name": "Identity_9", "op": "Identity", "input": ["StatefulPartitionedCall/WireFrameModel/Decoder/concat_1"], "attr": {"T": {"type": "DT_INT32"}}}, {"name": "Identity_14", "op": "Identity", "input": ["StatefulPartitionedCall/WireFrameModel/Decoder/concat_2"], "attr": {"T": {"type": "DT_INT32"}}}, {"name": "Identity_3", "op": "Identity", "input": ["StatefulPartitionedCall/WireFrameModel/Decoder/concat"], "attr": {"T": {"type": "DT_INT32"}}}], "library": {}, "versions": {"producer": 898}}, "weightsManifest": [{"paths": ["group1-shard1of1.bin"], "weights": [{"name": "StatefulPartitionedCall/WireFrameModel/Decoder/strided_slice_3/stack", "shape": [4], "dtype": "int32"}, {"name": "StatefulPartitionedCall/WireFrameModel/Decoder/strided_slice_3/stack_1", "shape": [4], "dtype": "int32"}, {"name": "StatefulPartitionedCall/WireFrameModel/Decoder/strided_slice_3/stack_2", "shape": [4], "dtype": "int32"}, {"name": "StatefulPartitionedCall/WireFrameModel/Decoder/strided_slice_1/stack", "shape": [4], "dtype": "int32"}, {"name": "StatefulPartitionedCall/WireFrameModel/Decoder/strided_slice_1/stack_1", "shape": [4], "dtype": "int32"}, {"name": "StatefulPartitionedCall/WireFrameModel/Decoder/strided_slice_1/stack_2", "shape": [4], "dtype": "int32"}, {"name": "StatefulPartitionedCall/WireFrameModel/Decoder/floordiv_2/y", "shape": [], "dtype": "int32"}, {"name": "StatefulPartitionedCall/WireFrameModel/Decoder/ExpandDims_4/dim", "shape": [], "dtype": "int32"}, {"name": "StatefulPartitionedCall/WireFrameModel/Decoder/mod_2/y", "shape": [], "dtype": "int32"}, {"name": "StatefulPartitionedCall/WireFrameModel/Decoder/ExpandDims_5/dim", "shape": [], "dtype": "int32"}, {"name": "StatefulPartitionedCall/WireFrameModel/Decoder/concat_2/axis", "shape": [], "dtype": "int32"}, {"name": "StatefulPartitionedCall/WireFrameModel/Decoder/strided_slice_2/stack", "shape": [4], "dtype": "int32"}, {"name": "StatefulPartitionedCall/WireFrameModel/Decoder/strided_slice_2/stack_1", "shape": [4], "dtype": "int32"}, {"name": "StatefulPartitionedCall/WireFrameModel/Decoder/strided_slice_2/stack_2", "shape": [4], "dtype": "int32"}, {"name": "StatefulPartitionedCall/WireFrameModel/Decoder/Reshape_2/shape", "shape": [2], "dtype": "int32"}, {"name": "StatefulPartitionedCall/WireFrameModel/Decoder/TopKV2_2/k", "shape": [], "dtype": "int32"}, {"name": "StatefulPartitionedCall/WireFrameModel/Decoder/strided_slice_5/stack", "shape": [4], "dtype": "int32"}, {"name": "StatefulPartitionedCall/WireFrameModel/Decoder/strided_slice_5/stack_1", "shape": [4], "dtype": "int32"}, {"name": "StatefulPartitionedCall/WireFrameModel/Decoder/strided_slice_5/stack_2", "shape": [4], "dtype": "int32"}, {"name": "StatefulPartitionedCall/WireFrameModel/Decoder/floordiv/y", "shape": [], "dtype": "int32"}, {"name": "StatefulPartitionedCall/WireFrameModel/Decoder/ExpandDims/dim", "shape": [], "dtype": "int32"}, {"name": "StatefulPartitionedCall/WireFrameModel/Decoder/mod/y", "shape": [], "dtype": "int32"}, {"name": "StatefulPartitionedCall/WireFrameModel/Decoder/ExpandDims_1/dim", "shape": [], "dtype": "int32"}, {"name": "StatefulPartitionedCall/WireFrameModel/Decoder/concat/axis", "shape": [], "dtype": "int32"}, {"name": "StatefulPartitionedCall/WireFrameModel/Decoder/strided_slice_4/stack", "shape": [4], "dtype": "int32"}, {"name": "StatefulPartitionedCall/WireFrameModel/Decoder/strided_slice_4/stack_1", "shape": [4], "dtype": "int32"}, {"name": "StatefulPartitionedCall/WireFrameModel/Decoder/strided_slice_4/stack_2", "shape": [4], "dtype": "int32"}, {"name": "StatefulPartitionedCall/WireFrameModel/Decoder/Reshape/shape", "shape": [2], "dtype": "int32"}, {"name": "StatefulPartitionedCall/WireFrameModel/Decoder/TopKV2/k", "shape": [], "dtype": "int32"}, {"name": "StatefulPartitionedCall/WireFrameModel/Decoder/strided_slice_6/stack", "shape": [4], "dtype": "int32"}, {"name": "StatefulPartitionedCall/WireFrameModel/Decoder/strided_slice_6/stack_1", "shape": [4], "dtype": "int32"}, {"name": "StatefulPartitionedCall/WireFrameModel/Decoder/strided_slice_6/stack_2", "shape": [4], "dtype": "int32"}, {"name": "StatefulPartitionedCall/WireFrameModel/Decoder/strided_slice_7/stack", "shape": [4], "dtype": "int32"}, {"name": "StatefulPartitionedCall/WireFrameModel/Decoder/strided_slice_7/stack_1", "shape": [4], "dtype": "int32"}, {"name": "StatefulPartitionedCall/WireFrameModel/Decoder/strided_slice_7/stack_2", "shape": [4], "dtype": "int32"}, {"name": "StatefulPartitionedCall/WireFrameModel/Decoder/strided_slice_8/stack", "shape": [4], "dtype": "int32"}, {"name": "StatefulPartitionedCall/WireFrameModel/Decoder/strided_slice_8/stack_1", "shape": [4], "dtype": "int32"}, {"name": "StatefulPartitionedCall/WireFrameModel/Decoder/strided_slice_8/stack_2", "shape": [4], "dtype": "int32"}, {"name": "StatefulPartitionedCall/WireFrameModel/Decoder/strided_slice_9/stack", "shape": [4], "dtype": "int32"}, {"name": "StatefulPartitionedCall/WireFrameModel/Decoder/strided_slice_9/stack_1", "shape": [4], "dtype": "int32"}, {"name": "StatefulPartitionedCall/WireFrameModel/Decoder/strided_slice_9/stack_2", "shape": [4], "dtype": "int32"}, {"name": "StatefulPartitionedCall/WireFrameModel/Decoder/floordiv_1/y", "shape": [], "dtype": "int32"}, {"name": "StatefulPartitionedCall/WireFrameModel/Decoder/ExpandDims_2/dim", "shape": [], "dtype": "int32"}, {"name": "ConstantFolding/StatefulPartitionedCall/WireFrameModel/tf_op_layer_RealDiv/RealDiv_recip", "shape": [], "dtype": "float32", "quantization": {"dtype": "float16", "original_dtype": "float32"}}, {"name": "StatefulPartitionedCall/WireFrameModel/tf_op_layer_Sub/Sub/y", "shape": [], "dtype": "float32", "quantization": {"dtype": "float16", "original_dtype": "float32"}}, {"name": "StatefulPartitionedCall/WireFrameModel/MLSD_extractor/Conv1_pad/Pad/paddings", "shape": [4, 2], "dtype": "int32"}, {"name": "StatefulPartitionedCall/WireFrameModel/MLSD_extractor/block_1_pad/Pad/paddings", "shape": [4, 2], "dtype": "int32"}, {"name": "StatefulPartitionedCall/WireFrameModel/MLSD_extractor/block_3_pad/Pad/paddings", "shape": [4, 2], "dtype": "int32"}, {"name": "StatefulPartitionedCall/WireFrameModel/MLSD_extractor/block_6_pad/Pad/paddings", "shape": [4, 2], "dtype": "int32"}, {"name": "StatefulPartitionedCall/WireFrameModel/decoder_fpn/upblock/resize/size", "shape": [2], "dtype": "int32"}, {"name": "StatefulPartitionedCall/WireFrameModel/decoder_fpn/upblock/concat/axis", "shape": [], "dtype": "int32"}, {"name": "StatefulPartitionedCall/WireFrameModel/decoder_fpn/upblock_1/resize/size", "shape": [2], "dtype": "int32"}, {"name": "StatefulPartitionedCall/WireFrameModel/decoder_fpn/upblock_1/concat/axis", "shape": [], "dtype": "int32"}, {"name": "StatefulPartitionedCall/WireFrameModel/Decoder/conv_bn__act_8/conv/Conv2D/SpaceToBatchND/block_shape", "shape": [2], "dtype": "int32"}, {"name": "StatefulPartitionedCall/WireFrameModel/Decoder/conv_bn__act_8/conv/Conv2D/SpaceToBatchND/paddings", "shape": [2, 2], "dtype": "int32"}, {"name": "unknown_189", "shape": [3, 3, 64, 64], "dtype": "float32", "quantization": {"dtype": "float16", "original_dtype": "float32"}}, {"name": "StatefulPartitionedCall/WireFrameModel/Decoder/conv_bn__act_8/conv/Conv2D/BatchToSpaceND/block_shape", "shape": [2], "dtype": "int32"}, {"name": "StatefulPartitionedCall/WireFrameModel/Decoder/conv_bn__act_8/conv/Conv2D/BatchToSpaceND/crops", "shape": [2, 2], "dtype": "int32"}, {"name": "unknown_199", "shape": [1, 1, 64, 16], "dtype": "float32", "quantization": {"dtype": "float16", "original_dtype": "float32"}}, {"name": "unknown_200", "shape": [16], "dtype": "float32", "quantization": {"dtype": "float16", "original_dtype": "float32"}}, {"name": "StatefulPartitionedCall/WireFrameModel/Decoder/resize/size", "shape": [2], "dtype": "int32"}, {"name": "StatefulPartitionedCall/WireFrameModel/Decoder/strided_slice/stack", "shape": [4], "dtype": "int32"}, {"name": "StatefulPartitionedCall/WireFrameModel/Decoder/strided_slice/stack_1", "shape": [4], "dtype": "int32"}, {"name": "StatefulPartitionedCall/WireFrameModel/Decoder/strided_slice/stack_2", "shape": [4], "dtype": "int32"}, {"name": "StatefulPartitionedCall/WireFrameModel/Decoder/Reshape_1/shape", "shape": [2], "dtype": "int32"}, {"name": "StatefulPartitionedCall/WireFrameModel/Decoder/TopKV2_1/k", "shape": [], "dtype": "int32"}, {"name": "StatefulPartitionedCall/WireFrameModel/Decoder/mod_1/y", "shape": [], "dtype": "int32"}, {"name": "StatefulPartitionedCall/WireFrameModel/Decoder/ExpandDims_3/dim", "shape": [], "dtype": "int32"}, {"name": "StatefulPartitionedCall/WireFrameModel/Decoder/concat_1/axis", "shape": [], "dtype": "int32"}, {"name": "StatefulPartitionedCall/WireFrameModel/MLSD_extractor/Conv1/Conv2D_weights", "shape": [3, 3, 3, 32], "dtype": "float32", "quantization": {"dtype": "float16", "original_dtype": "float32"}}, {"name": "StatefulPartitionedCall/WireFrameModel/MLSD_extractor/Conv1/Conv2D_bn_offset", "shape": [32], "dtype": "float32", "quantization": {"dtype": "float16", "original_dtype": "float32"}}, {"name": "StatefulPartitionedCall/WireFrameModel/MLSD_extractor/expanded_conv_depthwise/depthwise_weights", "shape": [3, 3, 32, 1], "dtype": "float32", "quantization": {"dtype": "float16", "original_dtype": "float32"}}, {"name": "StatefulPartitionedCall/WireFrameModel/MLSD_extractor/expanded_conv_depthwise/depthwise_bn_offset", "shape": [32], "dtype": "float32", "quantization": {"dtype": "float16", "original_dtype": "float32"}}, {"name": "StatefulPartitionedCall/WireFrameModel/MLSD_extractor/expanded_conv_project/Conv2D_weights", "shape": [1, 1, 32, 16], "dtype": "float32", "quantization": {"dtype": "float16", "original_dtype": "float32"}}, {"name": "StatefulPartitionedCall/WireFrameModel/MLSD_extractor/expanded_conv_project/Conv2D_bn_offset", "shape": [16], "dtype": "float32", "quantization": {"dtype": "float16", "original_dtype": "float32"}}, {"name": "StatefulPartitionedCall/WireFrameModel/MLSD_extractor/block_1_expand/Conv2D_weights", "shape": [1, 1, 16, 96], "dtype": "float32", "quantization": {"dtype": "float16", "original_dtype": "float32"}}, {"name": "StatefulPartitionedCall/WireFrameModel/MLSD_extractor/block_1_expand/Conv2D_bn_offset", "shape": [96], "dtype": "float32", "quantization": {"dtype": "float16", "original_dtype": "float32"}}, {"name": "StatefulPartitionedCall/WireFrameModel/MLSD_extractor/block_1_depthwise/depthwise_weights", "shape": [3, 3, 96, 1], "dtype": "float32", "quantization": {"dtype": "float16", "original_dtype": "float32"}}, {"name": "StatefulPartitionedCall/WireFrameModel/MLSD_extractor/block_1_depthwise/depthwise_bn_offset", "shape": [96], "dtype": "float32", "quantization": {"dtype": "float16", "original_dtype": "float32"}}, {"name": "StatefulPartitionedCall/WireFrameModel/MLSD_extractor/block_1_project/Conv2D_weights", "shape": [1, 1, 96, 24], "dtype": "float32", "quantization": {"dtype": "float16", "original_dtype": "float32"}}, {"name": "StatefulPartitionedCall/WireFrameModel/MLSD_extractor/block_1_project/Conv2D_bn_offset", "shape": [24], "dtype": "float32", "quantization": {"dtype": "float16", "original_dtype": "float32"}}, {"name": "StatefulPartitionedCall/WireFrameModel/MLSD_extractor/block_2_expand/Conv2D_weights", "shape": [1, 1, 24, 144], "dtype": "float32", "quantization": {"dtype": "float16", "original_dtype": "float32"}}, {"name": "StatefulPartitionedCall/WireFrameModel/MLSD_extractor/block_2_expand/Conv2D_bn_offset", "shape": [144], "dtype": "float32", "quantization": {"dtype": "float16", "original_dtype": "float32"}}, {"name": "StatefulPartitionedCall/WireFrameModel/MLSD_extractor/block_2_depthwise/depthwise_weights", "shape": [3, 3, 144, 1], "dtype": "float32", "quantization": {"dtype": "float16", "original_dtype": "float32"}}, {"name": "StatefulPartitionedCall/WireFrameModel/MLSD_extractor/block_2_depthwise/depthwise_bn_offset", "shape": [144], "dtype": "float32", "quantization": {"dtype": "float16", "original_dtype": "float32"}}, {"name": "StatefulPartitionedCall/WireFrameModel/MLSD_extractor/block_2_project/Conv2D_weights", "shape": [1, 1, 144, 24], "dtype": "float32", "quantization": {"dtype": "float16", "original_dtype": "float32"}}, {"name": "StatefulPartitionedCall/WireFrameModel/MLSD_extractor/block_2_project/Conv2D_bn_offset", "shape": [24], "dtype": "float32", "quantization": {"dtype": "float16", "original_dtype": "float32"}}, {"name": "StatefulPartitionedCall/WireFrameModel/decoder_fpn/upblock_1/conv_bn__act_4/conv/Conv2D_weights", "shape": [1, 1, 24, 32], "dtype": "float32", "quantization": {"dtype": "float16", "original_dtype": "float32"}}, {"name": "StatefulPartitionedCall/WireFrameModel/decoder_fpn/upblock_1/conv_bn__act_4/conv/Conv2D_bn_offset", "shape": [32], "dtype": "float32", "quantization": {"dtype": "float16", "original_dtype": "float32"}}, {"name": "StatefulPartitionedCall/WireFrameModel/MLSD_extractor/block_3_expand/Conv2D_weights", "shape": [1, 1, 24, 144], "dtype": "float32", "quantization": {"dtype": "float16", "original_dtype": "float32"}}, {"name": "StatefulPartitionedCall/WireFrameModel/MLSD_extractor/block_3_expand/Conv2D_bn_offset", "shape": [144], "dtype": "float32", "quantization": {"dtype": "float16", "original_dtype": "float32"}}, {"name": "StatefulPartitionedCall/WireFrameModel/MLSD_extractor/block_3_depthwise/depthwise_weights", "shape": [3, 3, 144, 1], "dtype": "float32", "quantization": {"dtype": "float16", "original_dtype": "float32"}}, {"name": "StatefulPartitionedCall/WireFrameModel/MLSD_extractor/block_3_depthwise/depthwise_bn_offset", "shape": [144], "dtype": "float32", "quantization": {"dtype": "float16", "original_dtype": "float32"}}, {"name": "StatefulPartitionedCall/WireFrameModel/MLSD_extractor/block_3_project/Conv2D_weights", "shape": [1, 1, 144, 32], "dtype": "float32", "quantization": {"dtype": "float16", "original_dtype": "float32"}}, {"name": "StatefulPartitionedCall/WireFrameModel/MLSD_extractor/block_3_project/Conv2D_bn_offset", "shape": [32], "dtype": "float32", "quantization": {"dtype": "float16", "original_dtype": "float32"}}, {"name": "StatefulPartitionedCall/WireFrameModel/MLSD_extractor/block_4_expand/Conv2D_weights", "shape": [1, 1, 32, 192], "dtype": "float32", "quantization": {"dtype": "float16", "original_dtype": "float32"}}, {"name": "StatefulPartitionedCall/WireFrameModel/MLSD_extractor/block_4_expand/Conv2D_bn_offset", "shape": [192], "dtype": "float32", "quantization": {"dtype": "float16", "original_dtype": "float32"}}, {"name": "StatefulPartitionedCall/WireFrameModel/MLSD_extractor/block_4_depthwise/depthwise_weights", "shape": [3, 3, 192, 1], "dtype": "float32", "quantization": {"dtype": "float16", "original_dtype": "float32"}}, {"name": "StatefulPartitionedCall/WireFrameModel/MLSD_extractor/block_4_depthwise/depthwise_bn_offset", "shape": [192], "dtype": "float32", "quantization": {"dtype": "float16", "original_dtype": "float32"}}, {"name": "StatefulPartitionedCall/WireFrameModel/MLSD_extractor/block_4_project/Conv2D_weights", "shape": [1, 1, 192, 32], "dtype": "float32", "quantization": {"dtype": "float16", "original_dtype": "float32"}}, {"name": "StatefulPartitionedCall/WireFrameModel/MLSD_extractor/block_4_project/Conv2D_bn_offset", "shape": [32], "dtype": "float32", "quantization": {"dtype": "float16", "original_dtype": "float32"}}, {"name": "StatefulPartitionedCall/WireFrameModel/MLSD_extractor/block_5_expand/Conv2D_weights", "shape": [1, 1, 32, 192], "dtype": "float32", "quantization": {"dtype": "float16", "original_dtype": "float32"}}, {"name": "StatefulPartitionedCall/WireFrameModel/MLSD_extractor/block_5_expand/Conv2D_bn_offset", "shape": [192], "dtype": "float32", "quantization": {"dtype": "float16", "original_dtype": "float32"}}, {"name": "StatefulPartitionedCall/WireFrameModel/MLSD_extractor/block_5_depthwise/depthwise_weights", "shape": [3, 3, 192, 1], "dtype": "float32", "quantization": {"dtype": "float16", "original_dtype": "float32"}}, {"name": "StatefulPartitionedCall/WireFrameModel/MLSD_extractor/block_5_depthwise/depthwise_bn_offset", "shape": [192], "dtype": "float32", "quantization": {"dtype": "float16", "original_dtype": "float32"}}, {"name": "StatefulPartitionedCall/WireFrameModel/MLSD_extractor/block_5_project/Conv2D_weights", "shape": [1, 1, 192, 32], "dtype": "float32", "quantization": {"dtype": "float16", "original_dtype": "float32"}}, {"name": "StatefulPartitionedCall/WireFrameModel/MLSD_extractor/block_5_project/Conv2D_bn_offset", "shape": [32], "dtype": "float32", "quantization": {"dtype": "float16", "original_dtype": "float32"}}, {"name": "StatefulPartitionedCall/WireFrameModel/decoder_fpn/upblock/conv_bn__act/conv/Conv2D_weights", "shape": [1, 1, 32, 64], "dtype": "float32", "quantization": {"dtype": "float16", "original_dtype": "float32"}}, {"name": "StatefulPartitionedCall/WireFrameModel/decoder_fpn/upblock/conv_bn__act/conv/Conv2D_bn_offset", "shape": [64], "dtype": "float32", "quantization": {"dtype": "float16", "original_dtype": "float32"}}, {"name": "StatefulPartitionedCall/WireFrameModel/MLSD_extractor/block_6_expand/Conv2D_weights", "shape": [1, 1, 32, 192], "dtype": "float32", "quantization": {"dtype": "float16", "original_dtype": "float32"}}, {"name": "StatefulPartitionedCall/WireFrameModel/MLSD_extractor/block_6_expand/Conv2D_bn_offset", "shape": [192], "dtype": "float32", "quantization": {"dtype": "float16", "original_dtype": "float32"}}, {"name": "StatefulPartitionedCall/WireFrameModel/MLSD_extractor/block_6_depthwise/depthwise_weights", "shape": [3, 3, 192, 1], "dtype": "float32", "quantization": {"dtype": "float16", "original_dtype": "float32"}}, {"name": "StatefulPartitionedCall/WireFrameModel/MLSD_extractor/block_6_depthwise/depthwise_bn_offset", "shape": [192], "dtype": "float32", "quantization": {"dtype": "float16", "original_dtype": "float32"}}, {"name": "StatefulPartitionedCall/WireFrameModel/MLSD_extractor/block_6_project/Conv2D_weights", "shape": [1, 1, 192, 64], "dtype": "float32", "quantization": {"dtype": "float16", "original_dtype": "float32"}}, {"name": "StatefulPartitionedCall/WireFrameModel/MLSD_extractor/block_6_project/Conv2D_bn_offset", "shape": [64], "dtype": "float32", "quantization": {"dtype": "float16", "original_dtype": "float32"}}, {"name": "StatefulPartitionedCall/WireFrameModel/MLSD_extractor/block_7_expand/Conv2D_weights", "shape": [1, 1, 64, 384], "dtype": "float32", "quantization": {"dtype": "float16", "original_dtype": "float32"}}, {"name": "StatefulPartitionedCall/WireFrameModel/MLSD_extractor/block_7_expand/Conv2D_bn_offset", "shape": [384], "dtype": "float32", "quantization": {"dtype": "float16", "original_dtype": "float32"}}, {"name": "StatefulPartitionedCall/WireFrameModel/MLSD_extractor/block_7_depthwise/depthwise_weights", "shape": [3, 3, 384, 1], "dtype": "float32", "quantization": {"dtype": "float16", "original_dtype": "float32"}}, {"name": "StatefulPartitionedCall/WireFrameModel/MLSD_extractor/block_7_depthwise/depthwise_bn_offset", "shape": [384], "dtype": "float32", "quantization": {"dtype": "float16", "original_dtype": "float32"}}, {"name": "StatefulPartitionedCall/WireFrameModel/MLSD_extractor/block_7_project/Conv2D_weights", "shape": [1, 1, 384, 64], "dtype": "float32", "quantization": {"dtype": "float16", "original_dtype": "float32"}}, {"name": "StatefulPartitionedCall/WireFrameModel/MLSD_extractor/block_7_project/Conv2D_bn_offset", "shape": [64], "dtype": "float32", "quantization": {"dtype": "float16", "original_dtype": "float32"}}, {"name": "StatefulPartitionedCall/WireFrameModel/MLSD_extractor/block_8_expand/Conv2D_weights", "shape": [1, 1, 64, 384], "dtype": "float32", "quantization": {"dtype": "float16", "original_dtype": "float32"}}, {"name": "StatefulPartitionedCall/WireFrameModel/MLSD_extractor/block_8_expand/Conv2D_bn_offset", "shape": [384], "dtype": "float32", "quantization": {"dtype": "float16", "original_dtype": "float32"}}, {"name": "StatefulPartitionedCall/WireFrameModel/MLSD_extractor/block_8_depthwise/depthwise_weights", "shape": [3, 3, 384, 1], "dtype": "float32", "quantization": {"dtype": "float16", "original_dtype": "float32"}}, {"name": "StatefulPartitionedCall/WireFrameModel/MLSD_extractor/block_8_depthwise/depthwise_bn_offset", "shape": [384], "dtype": "float32", "quantization": {"dtype": "float16", "original_dtype": "float32"}}, {"name": "StatefulPartitionedCall/WireFrameModel/MLSD_extractor/block_8_project/Conv2D_weights", "shape": [1, 1, 384, 64], "dtype": "float32", "quantization": {"dtype": "float16", "original_dtype": "float32"}}, {"name": "StatefulPartitionedCall/WireFrameModel/MLSD_extractor/block_8_project/Conv2D_bn_offset", "shape": [64], "dtype": "float32", "quantization": {"dtype": "float16", "original_dtype": "float32"}}, {"name": "StatefulPartitionedCall/WireFrameModel/MLSD_extractor/block_9_expand/Conv2D_weights", "shape": [1, 1, 64, 384], "dtype": "float32", "quantization": {"dtype": "float16", "original_dtype": "float32"}}, {"name": "StatefulPartitionedCall/WireFrameModel/MLSD_extractor/block_9_expand/Conv2D_bn_offset", "shape": [384], "dtype": "float32", "quantization": {"dtype": "float16", "original_dtype": "float32"}}, {"name": "StatefulPartitionedCall/WireFrameModel/MLSD_extractor/block_9_depthwise/depthwise_weights", "shape": [3, 3, 384, 1], "dtype": "float32", "quantization": {"dtype": "float16", "original_dtype": "float32"}}, {"name": "StatefulPartitionedCall/WireFrameModel/MLSD_extractor/block_9_depthwise/depthwise_bn_offset", "shape": [384], "dtype": "float32", "quantization": {"dtype": "float16", "original_dtype": "float32"}}, {"name": "StatefulPartitionedCall/WireFrameModel/MLSD_extractor/block_9_project/Conv2D_weights", "shape": [1, 1, 384, 64], "dtype": "float32", "quantization": {"dtype": "float16", "original_dtype": "float32"}}, {"name": "StatefulPartitionedCall/WireFrameModel/MLSD_extractor/block_9_project/Conv2D_bn_offset", "shape": [64], "dtype": "float32", "quantization": {"dtype": "float16", "original_dtype": "float32"}}, {"name": "StatefulPartitionedCall/WireFrameModel/decoder_fpn/upblock/conv_bn__act_1/conv/Conv2D_weights", "shape": [1, 1, 64, 64], "dtype": "float32", "quantization": {"dtype": "float16", "original_dtype": "float32"}}, {"name": "StatefulPartitionedCall/WireFrameModel/decoder_fpn/upblock/conv_bn__act_1/conv/Conv2D_bn_offset", "shape": [64], "dtype": "float32", "quantization": {"dtype": "float16", "original_dtype": "float32"}}, {"name": "StatefulPartitionedCall/WireFrameModel/decoder_fpn/upblock/conv_bn__act_2/conv/Conv2D_weights", "shape": [3, 3, 128, 128], "dtype": "float32", "quantization": {"dtype": "float16", "original_dtype": "float32"}}, {"name": "StatefulPartitionedCall/WireFrameModel/decoder_fpn/upblock/conv_bn__act_2/conv/Conv2D_bn_offset", "shape": [128], "dtype": "float32", "quantization": {"dtype": "float16", "original_dtype": "float32"}}, {"name": "StatefulPartitionedCall/WireFrameModel/decoder_fpn/upblock/conv_bn__act_3/conv/Conv2D_weights", "shape": [3, 3, 128, 64], "dtype": "float32", "quantization": {"dtype": "float16", "original_dtype": "float32"}}, {"name": "StatefulPartitionedCall/WireFrameModel/decoder_fpn/upblock/conv_bn__act_3/conv/Conv2D_bn_offset", "shape": [64], "dtype": "float32", "quantization": {"dtype": "float16", "original_dtype": "float32"}}, {"name": "StatefulPartitionedCall/WireFrameModel/decoder_fpn/upblock_1/conv_bn__act_5/conv/Conv2D_weights", "shape": [1, 1, 64, 32], "dtype": "float32", "quantization": {"dtype": "float16", "original_dtype": "float32"}}, {"name": "StatefulPartitionedCall/WireFrameModel/decoder_fpn/upblock_1/conv_bn__act_5/conv/Conv2D_bn_offset", "shape": [32], "dtype": "float32", "quantization": {"dtype": "float16", "original_dtype": "float32"}}, {"name": "StatefulPartitionedCall/WireFrameModel/decoder_fpn/upblock_1/conv_bn__act_6/conv/Conv2D_weights", "shape": [3, 3, 64, 64], "dtype": "float32", "quantization": {"dtype": "float16", "original_dtype": "float32"}}, {"name": "StatefulPartitionedCall/WireFrameModel/decoder_fpn/upblock_1/conv_bn__act_6/conv/Conv2D_bn_offset", "shape": [64], "dtype": "float32", "quantization": {"dtype": "float16", "original_dtype": "float32"}}, {"name": "StatefulPartitionedCall/WireFrameModel/decoder_fpn/upblock_1/conv_bn__act_7/conv/Conv2D_weights", "shape": [3, 3, 64, 64], "dtype": "float32", "quantization": {"dtype": "float16", "original_dtype": "float32"}}, {"name": "StatefulPartitionedCall/WireFrameModel/decoder_fpn/upblock_1/conv_bn__act_7/conv/Conv2D_bn_offset", "shape": [64], "dtype": "float32", "quantization": {"dtype": "float16", "original_dtype": "float32"}}, {"name": "StatefulPartitionedCall/WireFrameModel/Decoder/conv_bn__act_8/bn/FusedBatchNormV3/Scaled", "shape": [64], "dtype": "float32", "quantization": {"dtype": "float16", "original_dtype": "float32"}}, {"name": "StatefulPartitionedCall/WireFrameModel/Decoder/conv_bn__act_9/conv/Conv2D_weights", "shape": [3, 3, 64, 64], "dtype": "float32", "quantization": {"dtype": "float16", "original_dtype": "float32"}}, {"name": "StatefulPartitionedCall/WireFrameModel/Decoder/conv_bn__act_9/conv/Conv2D_bn_offset", "shape": [64], "dtype": "float32", "quantization": {"dtype": "float16", "original_dtype": "float32"}}, {"name": "StatefulPartitionedCall/WireFrameModel/Decoder/conv_bn__act_8/bn/FusedBatchNormV3/Offset", "shape": [64], "dtype": "float32", "quantization": {"dtype": "float16", "original_dtype": "float32"}}]}]}